model/generation_1892.pth (torch, 17107 bytes, 4 tensors)

linear1.weight f4 [256, 11]
000000 3f 04 b9 be 2f eb 80 be 0d 57 9e be 69 0c ef 3d
       -0.36136052 -0.2517943 -0.3092579 0.11672289
000010 98 f1 9f be 71 ac 8b bb a3 ce ac bb 7e 7b e8 3d
       -0.3123901 -0.0042625 -0.0052736565 0.11351679
000020 7c 8d 81 be 0f e8 f9 3d 3c c7 63 bd c8 b2 67 bd
       -0.25303257 0.12202465 -0.055609927 -0.056566983
000030 33 11 ec 3d cb 64 93 be dc 5e 29 be b4 27 d0 3d
       0.11526718 -0.28787836 -0.16540092 0.10163823
000040 1d 80 2f be 59 de dd bd eb 7b bc bd 57 f0 d9 bd
       -0.17138715 -0.10833425 -0.09203323 -0.10641544
000050 a8 cf ba bd 19 98 1e 3c 52 49 c9 3d 7c 30 a9 bd
       -0.091216385 0.009679818 0.09828438 -0.08261201
000060 1c 5b 2b bf 5b 89 8c 3d 2d ef ff be 36 e1 8a be
       -0.66935897 0.06862136 -0.49987164 -0.27124947
000070 af d3 1e be 32 40 ea 3d e1 27 87 3e 7b d7 10 3e
       -0.15510438 0.114380255 0.26397613 0.141447
000080 bd 4e 29 3d bd 6f 84 3e 26 dd 57 bd 7c 91 9a bf
       0.041334856 0.258665 -0.052701138 -1.2075648
000090 57 5a 75 bf a7 9d de be 6a cf 62 bf b1 6c 85 3e
       -0.9584097 -0.43479654 -0.8859774 0.26059487
0000a0 a3 a3 89 bf d9 50 36 bd 6f 47 86 bf 3c 6f 26 bf
       -1.0753063 -0.044510696 -1.049055 -0.6501348
0000b0 44 2e d0 3c 97 ce 57 be bf d8 90 bf ff 33 93 bf
       0.025412686 -0.21074902 -1.1316146 -1.1500243
0000c0 7f 20 3d 3f d4 c2 65 bf 91 6c 8e 3e b4 c2 b5 bf
       0.7387771 -0.8975041 0.27817205 -1.4200044
0000d0 f6 b7 0a 3f 06 12 5f bf 92 56 bb bf 83 aa 8d 3e
       0.5418695 -0.87136877 -1.4635794 0.27669153
0000e0 cb a0 86 bf f2 cc 87 bf 15 32 44 bf 04 39 3a bf
       -1.051782 -1.0609419 -0.7663892 -0.7274325
0000f0 9f 62 a7 3e 78 ba 96 3e 41 a4 62 3e 60 77 4b 3e
       0.3269243 0.2943914 0.2213297 0.19869757
000100 44 49 1b bf aa cf 60 bf 5d b8 84 3e eb 7b a5 bf
       -0.6065867 -0.8781687 0.25921908 -1.2928442
000110 6b 3e c5 3f ab 1a fa be 85 96 66 be 1d c2 8b be
       1.5409673 -0.4884847 -0.22518356 -0.27296534
000120 5e 9c 76 be c7 9b 0a bf 08 46 bc be 3c cd b4 be
       -0.24083087 -0.5414395 -0.3677218 -0.3531283
000130 39 92 0e bf 61 6e a9 3d 67 a9 65 3e ad 78 af 3e
       -0.5569187 0.08273006 0.22427903 0.34271756
000140 d6 3f fa bd 06 a5 d0 bd 82 ff 4f be ac 5f 11 be
       -0.12219207 -0.10187726 -0.20312312 -0.14196652
000150 e3 25 94 3d c7 20 da bb b8 82 3c 3e e7 ba 65 3d
       0.07233789 -0.0066567394 0.1840924 0.056086447
000160 7f c3 93 be d1 7a d4 be b9 5b 4d be 9b e0 be be
       -0.2886009 -0.4149995 -0.2005452 -0.37280735
000170 1e 05 8a 3e 70 94 cf bd 0e 8d 83 be 9b 41 f6 be
       0.2695703 -0.10135734 -0.25693554 -0.48096928
000180 1d d7 5e be d6 3e 11 bf 16 62 88 bb c3 27 87 bd
       -0.21761747 -0.56736505 -0.0041620834 -0.06599381
000190 c0 7e d3 3e 04 01 e3 3e 60 45 f8 be 5c 8c 10 3f
       0.4130764 0.44336712 -0.4849043 0.5646417
0001a0 56 8b 5f bf 46 d1 6e 3f 8f 46 18 3f a6 0d 14 bf
       -0.87321985 0.93288076 0.59482664 -0.57833326
0001b0 84 22 7a 3f 5e 59 c4 bf c0 68 67 3e b3 c7 e3 3e
       0.97708917 -1.5339773 0.22598553 0.44488296
0001c0 be ad a0 3e 13 90 27 bf ae e8 72 be cf 20 12 bf
       0.31382555 -0.65454215 -0.23721573 -0.5708131
0001d0 63 db eb be 01 7d aa 3d 5e c5 17 3d ac 90 c2 3d
       -0.46065816 0.08324624 0.03705346 0.0950025
0001e0 f2 1a 31 be c9 e9 c0 3d e9 51 b4 3e a3 57 72 bf
       -0.17295435 0.09419591 0.35218742 -0.94664973
0001f0 04 3c bf bd 42 ed bc 3d e4 cc 17 bf 66 6a 8a be
       -0.09337619 0.09224941 -0.59297013 -0.270343
000200 4a 68 a9 3c 5b 9c ab be d6 50 54 bf 27 32 2e be
       0.020679612 -0.33517727 -0.82935846 -0.17011319
000210 bc 73 0f bf 9d 37 0d 3f 7d 03 ee bd 65 d1 99 bf
       -0.5603597 0.55162984 -0.11621759 -1.2017027
000220 00 27 99 3e d1 9e a5 3d 66 57 8b 3e ac de b0 bf
       0.29912567 0.080869325 0.27215117 -1.3817954
000230 c3 b6 d0 be 2b ff 57 be 3f c7 bd be f1 19 5a 3e
       -0.40764436 -0.21093433 -0.37066075 0.21298958
000240 7d c3 0a bf 1d ec 81 3e 17 fa a2 bc 03 cd c0 be
       -0.5420454 0.25375453 -0.019894643 -0.37656412
000250 bd f9 4f 3d 44 3b 71 bc 22 20 37 be 0a 1d 61 bc
       0.05077528 -0.014723603 -0.17883351 -0.013739834
000260 0f 97 b3 be 09 f1 de 3c ee 89 cc 3e 8c 50 87 3d
       -0.35076186 0.027214544 0.39948982 0.0660716
000270 97 0d 2c 3f 14 14 13 bd 5c 32 96 bf e0 c1 3e 3e
       0.67208236 -0.03590782 -1.1734118 0.18628645
000280 6f 15 2d bf 7b d9 65 bc f2 23 16 3f 2e 01 ae bf
       -0.6761083 -0.014028902 0.586486 -1.359411
000290 ab 59 95 3d 3a 42 94 3d b0 1f d7 bc e8 c9 7e bd
       0.072924934 0.07239194 -0.026260227 -0.06220427
0002a0 07 b0 a1 bd 86 c1 46 be 9f cd 36 be ed 49 42 be
       -0.07894903 -0.19409761 -0.17851876 -0.18973513
0002b0 18 f8 1c 3e 58 f3 2f 3e 7b f8 4d 3e 94 e9 c4 3c
       0.15329015 0.17182672 0.20114319 0.02403716
0002c0 c2 1a b3 bf ae ef c2 bf c2 14 a3 3e ce b4 0a be
       -1.3992541 -1.5229394 0.31851774 -0.13545534
0002d0 11 89 7c 3f f6 31 c1 3e 4c a3 0e be e4 57 ec 3e
       0.98646647 0.3773343 -0.1392948 0.46160805
0002e0 7c 54 9e be 9a 4b c9 bd b3 ca 68 bf 86 41 b4 3d
       -0.3092383 -0.09828873 -0.90934294 0.0880156
0002f0 c0 83 4f bf 7e 5a b9 3e fb 87 e2 bb 9f ca 79 bf
       -0.8106041 0.36201853 -0.006913183 -0.975748
000300 85 ca c8 3e c1 3a 38 bf 93 3a 27 be 57 45 78 bf
       0.3921701 -0.7196465 -0.16330938 -0.96980804
000310 92 f4 d6 be 98 28 a2 bf 27 31 3b bf a9 f7 75 3e
       -0.41983467 -1.2668638 -0.73121876 0.24020256
000320 52 a5 40 3e 3e 97 27 3f ed 69 df be ee 21 07 3f
       0.18813065 0.6546515 -0.43635502 0.5278615
000330 93 45 23 bf ad 34 ab bf ce 89 b9 bf 17 c1 f7 be
       -0.63778037 -1.337545 -1.449518 -0.48389503
000340 67 16 35 3f 11 c2 e6 3e 01 74 a4 bd b4 cb fd 3e
       0.7073731 0.45069936 -0.080299385 0.49569476
000350 3c 60 b7 3e 91 dc 14 bf 97 d5 6b be 49 c0 0e be
       0.35815609 -0.5814906 -0.23030697 -0.13940538
000360 c5 41 ce be bf 08 bb 3e cf 6d 3c bf 2d db 6a bf
       -0.40284553 0.3653011 -0.73605055 -0.91740686
000370 2b 3d 27 be 90 75 a0 be 43 39 75 3e f5 ae 81 be
       -0.16331927 -0.31339693 0.23947625 -0.25328794
000380 5d 6a 38 3f 9f 32 94 bd c1 be 83 be 74 42 0d 3f
       0.720373 -0.07236218 -0.2573147 0.55179524
000390 ed 63 ff be ad 12 67 bf b0 fe 8b bf 83 32 1e 3e
       -0.49880925 -0.9026287 -1.09371 0.15448956
0003a0 da 78 60 bf 05 c3 64 bf 16 ab 59 3e 44 57 87 3e
       -0.87684405 -0.89360076 0.2125667 0.26433766
0003b0 74 01 57 bf 49 f2 32 bf bf aa 91 bf f7 f8 93 bf
       -0.8398659 -0.6990095 -1.1380233 -1.1560353
0003c0 31 ac 2a 3e e9 fc 17 3e 4a ed 89 3f 38 23 9d bf
       0.16667248 0.14842571 1.077554 -1.2276373
0003d0 6e 56 71 3e b0 c6 a6 3f e7 ad 20 3e f8 a6 2d bf
       0.23568127 1.3029385 0.15691338 -0.678329
0003e0 68 be cd 3e 97 ae 95 bf fa b6 93 3c 93 15 59 3f
       0.4018433 -1.1693906 0.018031586 0.84798545
0003f0 32 a9 bd be 09 a1 2b be 14 94 39 bf d3 88 05 be
       -0.37043148 -0.16760649 -0.72491574 -0.13040476

linear1.bias f4 [256]
000000 ee f3 ba be 6e f7 75 be 8e 43 1b bf 43 1a 9b 3e
       -0.3651423 -0.24020168 -0.60649955 0.30293474
000010 59 a5 14 3f 44 c4 79 3d d6 59 a2 3e c5 9e 64 bf
       0.580648 0.06097819 0.31709164 -0.89304763
000020 fa 08 88 be ca ed db be a2 12 91 bf 8e ad 31 bf
       -0.2656935 -0.42954856 -1.1333811 -0.6940545
000030 5f 6a 60 3f 08 dd 11 bf 1c 5a 6b be 80 81 c1 be
       0.8766231 -0.5697789 -0.22983593 -0.37794113
000040 17 10 32 bf b2 a9 45 3f a2 a5 9b be 51 27 ec bd
       -0.695558 0.7721206 -0.30399805 -0.115309365
000050 c9 6e c6 be 93 5d e2 3e 66 6a aa be 93 c0 c1 be
       -0.38756397 0.44212016 -0.332843 -0.37842235
000060 48 91 3f be de c5 26 bf c8 0f bc be 60 b4 18 be
       -0.18707764 -0.6514567 -0.3673079 -0.14912558
000070 d6 b1 a0 bf c5 2f 30 bf 49 3e d0 be 4d bf 15 bf
       -1.2554271 -0.6882289 -0.4067252 -0.58495027
000080 57 19 2c bf 80 72 58 3b 36 f4 20 be 55 db 67 be
       -0.67226166 0.0033027232 -0.15718159 -0.22642262
000090 b7 99 64 bd 15 f6 f1 be 97 2c c0 3d 96 99 27 bf
       -0.055810656 -0.47258058 0.09383505 -0.6546873
0000a0 61 bd 6e be df 62 95 be da 77 44 40 c8 ac c2 be
       -0.2331443 -0.29176995 3.0698152 -0.38022447
0000b0 8b 1f 9c be 38 34 1b bf d9 19 52 bf eb 89 a5 be
       -0.30492815 -0.60626554 -0.8207069 -0.32331786
0000c0 76 82 88 bd 15 0e ed 3d fd c5 e6 3e 2d 61 6a bf
       -0.066655084 0.115749516 0.45072928 -0.9155453
0000d0 b5 b6 0c bf 4a a3 64 bf a6 9c e3 be d4 72 c7 be
       -0.5496629 -0.8931166 -0.4445545 -0.38954794
0000e0 35 15 43 bf 86 b6 76 bf a9 81 b7 be 2d 15 57 3f
       -0.76204234 -0.9637226 -0.3584111 0.84016687
0000f0 c8 43 0d 3e fc 82 b3 be fa 63 e5 be 9a be 09 3e
       0.13795388 -0.3506087 -0.4480284 0.13451615
000100 c2 ec dd be e4 ee 8d bf 10 11 03 bd 7d f9 8f bf
       -0.43344694 -1.1088529 -0.031998694 -1.1248013
000110 f4 d6 a2 3d 8b 59 04 be 25 cd c8 be 10 b7 84 be
       0.07951155 -0.12924783 -0.39219013 -0.25920916
000120 5b ae 97 bf 43 ab 8a be 44 0e 45 bf 4c d5 37 be
       -1.1850084 -0.27083787 -0.7697489 -0.1795246
000130 c9 e7 87 be 4e d9 f0 be 98 51 46 bf 75 ea 13 3f
       -0.26544026 -0.4704079 -0.7746825 0.5777963
000140 9a 32 bb be f8 0e 46 bc 0d 13 f5 be ff 8c 9a be
       -0.36562043 -0.01208853 -0.47866097 -0.30185696
000150 b1 30 1c be 83 26 56 3f 01 7a 06 bf a9 75 81 be
       -0.1525295 0.83652514 -0.52529913 -0.2528508
000160 d9 86 96 3e 75 21 22 3c 53 8e d8 3e c5 3b aa 3d
       0.29399756 0.009895672 0.42296085 0.083121814
000170 2f 0f 30 be cb 8f 74 be d7 5f b3 be 37 69 bf be
       -0.17193292 -0.23882978 -0.35034057 -0.3738496
000180 be 6b d9 be e5 07 09 bf 92 44 31 bf 10 c1 b0 3f
       -0.42465013 -0.5352767 -0.69245255 1.3808918
000190 bb 62 02 bf f5 36 37 bf d1 23 90 bf 96 d9 3a be
       -0.509319 -0.7156823 -1.126093 -0.18247065
0001a0 57 1c 44 3f 19 f4 46 bf 8b db fb be bb 66 85 be
       0.76605743 -0.77716213 -0.49190935 -0.2605494
0001b0 1a b9 28 bf bc c4 42 3e d3 d6 9e be 77 5c 44 bf
       -0.6590744 0.1902036 -0.31023273 -0.7670359
0001c0 4d b6 4b bd 8b 78 37 bf e7 ba 04 3e 5a 91 32 3f
       -0.049734402 -0.7166831 0.12961923 0.6975304
0001d0 ed 4c 00 bf e4 93 2a bf b4 a4 9d be c4 f4 09 bf
       -0.5011738 -0.66631913 -0.3078972 -0.5388911
0001e0 71 57 e2 bd 4d 6f 0b 3f d5 68 74 bf 8c 13 16 3f
       -0.110518344 0.54466707 -0.9547246 0.58623576
0001f0 db df 55 3f 88 30 05 bf 6d 7d 42 bd 53 49 f8 be
       0.835447 -0.5202718 -0.047482897 -0.48493442
000200 6b 77 91 bd 79 e0 18 3f c6 19 9e 3e 01 9c 34 3e
       -0.07102855 0.5971752 0.3087904 0.17637636
000210 fe 29 6a be 68 6d d2 be 20 06 c9 be 58 fc c3 be
       -0.22867581 -0.41099095 -0.39262486 -0.3827846
000220 93 0b 3e bf 5e 47 77 bf c8 63 e9 be 8b d0 15 bf
       -0.7423641 -0.9659327 -0.4558394 -0.58521336
000230 9c 07 39 be a5 a1 b6 bd a1 25 c2 be 90 e2 33 bf
       -0.18069309 -0.0891755 -0.37919334 -0.7026758
000240 4d 80 28 bf 1a d8 7b 3e 55 c1 1d bd da 5d 84 3e
       -0.6582077 0.24594155 -0.038514454 0.25852853
000250 38 44 e9 be 64 b8 8b 3e 5b 35 bc be 08 b1 0f be
       -0.4555986 0.27289116 -0.36759457 -0.14032376
000260 0e 44 86 be bc 6e f7 be 76 0e 50 bd be 44 85 bf
       -0.26223797 -0.4832667 -0.05079504 -1.0411603
000270 8f 9f 91 bf b2 a2 5c bf 23 84 3d bf 20 4f 4c be
       -1.1376818 -0.86185753 -0.7402975 -0.19952059
000280 f9 06 d9 be 94 da e3 be 96 7a 30 be 8a 4a 85 bf
       -0.42388132 -0.445027 -0.17234263 -1.0413373
000290 4a 1b 4b bf 88 b2 98 be 34 19 2b bf dd f0 28 bf
       -0.79338515 -0.2982371 -0.6683533 -0.6599253
0002a0 fe e5 a7 3f d4 75 0c bf 13 62 08 bf 4b 43 20 bf
       1.3117063 -0.5486729 -0.5327465 -0.6260268
0002b0 1e af 50 bf ec 3e 2f be 05 f2 06 be bf b1 86 be
       -0.8151721 -0.17113847 -0.1317826 -0.26307485
0002c0 8c 34 4c 3f f1 b6 6e bf 5c a0 4c bf be f9 2b 3e
       0.7976768 -0.93247896 -0.7993219 0.16794488
0002d0 7c 31 1e bf 85 aa 2a be 60 0f ad be 02 fc 38 3f
       -0.6179426 -0.1666661 -0.33800793 0.72259533
0002e0 49 02 a2 be 50 43 83 be 98 03 d5 3f 6e 81 39 bf
       -0.31642368 -0.25637293 1.6641722 -0.7246312
0002f0 f9 7a a4 3e 5b cf 11 bf 34 39 08 be f4 ba 96 be
       0.3212507 -0.56957024 -0.13303071 -0.2943951
000300 25 f5 60 bf 88 88 55 be 87 a9 3f bf 81 c7 d1 be
       -0.8787406 -0.20852864 -0.74868053 -0.40972522
000310 28 b2 78 bf 8d 9d 47 bf 99 e7 42 bf 81 78 cc bd
       -0.97146845 -0.7797478 -0.7613464 -0.09983922
000320 45 71 86 be d5 4d f3 3b 7c e9 05 3f 19 ab 48 be
       -0.26258293 0.00742505 0.52309394 -0.19596519
000330 50 51 60 bf ed bc 69 3e bc 78 67 bf 7d e3 fd be
       -0.87624073 0.22825976 -0.904186 -0.49587622
000340 70 54 9a 3f 54 c0 08 bf 41 53 b3 3e 79 af c9 be
       1.2057018 -0.5341847 0.35024455 -0.39391688
000350 60 d0 2d bf b8 a0 33 bf 8a b8 b1 be 58 e2 e7 3d
       -0.6789608 -0.7016711 -0.34711105 0.113224685
000360 e5 55 eb 3c 5c 6e ce be 35 d2 4e bf 34 89 ad be
       0.028727481 -0.40318573 -0.807895 -0.3389374
000370 4b d8 84 be e2 cf 2c be 5a 32 40 bf ba 6e f0 3e
       -0.25946268 -0.16876176 -0.7507683 0.46959478
000380 b9 4c ae be b2 5a 62 bf f8 80 7d bf 31 7f eb bd
       -0.3404291 -0.8841964 -0.99024916 -0.11498869
000390 61 64 6c be 45 c9 60 bf 73 03 3c 3f d7 74 ca bd
       -0.23085167 -0.8780711 0.73442763 -0.09885567
0003a0 94 2b 8b be b6 5b bb be 3d 97 6f be ae 54 bc be
       -0.27181685 -0.36593407 -0.23397537 -0.36783355
0003b0 a4 84 da 3d d7 50 81 bf 5a ef 6d bf a4 9c 87 be
       0.106698304 -1.0102795 -0.92943347 -0.26486695
0003c0 97 e4 93 be bd dc c4 3e b3 0f b4 bd 78 88 d5 bd
       -0.28885338 0.3844966 -0.08792057 -0.1042642
0003d0 fc d2 f2 be cf 04 09 bf 69 1d d9 be 8a 26 56 bf
       -0.47426593 -0.5352296 -0.4240525 -0.83652556
0003e0 20 11 0b bf c8 95 c4 3d 5a c5 c7 bd 3f 3f a1 3e
       -0.54323006 0.09598881 -0.09754439 0.31493565
0003f0 98 c0 89 bf 3b 47 0c bf a4 02 8e be 20 57 cc be
       -1.07619 -0.5479619 -0.2773639 -0.3991022

linear2.weight f4 [3, 256]
000000 94 02 8c 3c 7f 02 ba bb be 02 be bc d5 0a 33 ba
       0.017091073 -0.005676567 -0.023194667 -0.0006829922
000010 39 d4 e1 3e 1f 3c 03 bd 3c be a8 3e 4b 6a 2c 3c
       0.44107226 -0.032039758 0.32957637 0.010523389
000020 de e4 eb bc d7 fb 15 bf f2 b6 ab 3d 7f bf 58 bd
       -0.028795656 -0.585874 0.083845034 -0.052917
000030 bb b3 d7 3e 0d f0 84 3c 91 dc f7 bd 70 8b 9d bc
       0.4212931 0.016227746 -0.121026166 -0.019231528
000040 e3 26 4e be e2 1d 4c 3e 89 0d 18 bf 85 b7 ec be
       -0.20132022 0.19933274 -0.59395653 -0.46233764
000050 df fb ff bd 35 0e 43 bd 91 93 04 bf 71 6e 41 be
       -0.124992125 -0.04762097 -0.5178767 -0.18889786
000060 33 b3 e1 3c cc ef 84 bd 1d 07 d0 be bc df 87 bc
       0.02755127 -0.0649105 -0.40630427 -0.016586177
000070 c1 b3 a9 3f 5c 0a 6d bd e6 f0 1d 3c 55 29 78 be
       1.3257982 -0.057871208 0.009639954 -0.24234517
000080 02 77 04 ba 9a 6f 06 bd 18 57 08 be 08 ef 26 bb
       -0.0005053134 -0.032821275 -0.13314474 -0.0025472064
000090 ce ef bc bc 0e f7 3a bf 58 41 70 3e 8a 21 06 bf
       -0.023063567 -0.73033226 0.23462427 -0.52394927
0000a0 c8 b1 86 bc 97 ff 82 be 20 9d c6 3e bf 30 09 bd
       -0.016442195 -0.25585625 0.38791752 -0.033493754
0000b0 49 54 15 be 39 c2 1f 3e cd b4 a2 be 1b 34 48 bf
       -0.14582933 0.15601434 -0.31778565 -0.78204507
0000c0 2a 38 68 ba a0 79 7e bf c3 4b 74 3c d8 ad 12 bd
       -0.0008858467 -0.99404335 0.014910641 -0.03581032
0000d0 74 1a c9 bd db d8 50 be 36 7c 9c bb 96 7a f0 bc
       -0.09819499 -0.20395224 -0.0047755493 -0.029355329
0000e0 44 e3 81 be 1e 02 a1 bd 2c bc ef be 29 43 ff 3e
       -0.25368702 -0.07861732 -0.4682325 0.49855927
0000f0 b0 15 16 3b 58 6d 85 3c 68 64 49 be b6 f0 a7 bc
       0.002290111 0.01628749 -0.19667208 -0.020500522
000100 97 76 e2 3c ed 17 7c 3c 8a d3 0d bc ee ac f4 bd
       0.027644439 0.015386564 -0.008656392 -0.11947046
000110 14 bf 93 bd 7a ea 00 bf 94 2f 12 bf 7a b9 d4 3c
       -0.0721418 -0.5035778 -0.5710385 0.025967348
000120 f8 ac e1 3e 85 c6 98 bd 87 cf 72 be ee 20 f3 3c
       0.44077277 -0.074597396 -0.23711978 0.029678788
000130 32 ad 12 bd 71 07 56 3c a4 92 a1 bc a5 3d 05 3e
       -0.035809703 0.013063298 -0.019723244 0.13011797
000140 71 35 d7 3d a4 13 f4 bc 4b 30 87 be c2 bb d5 bc
       0.1050824 -0.029794522 -0.26404032 -0.026090506
000150 a0 c5 10 bf 79 2b 58 3e 8a df 84 bd a4 9c e4 be
       -0.5655155 0.21110334 -0.06487949 -0.44650757
000160 b1 f3 99 3e a9 19 09 3f 29 bd 04 be 60 88 30 be
       0.30068734 0.5355478 -0.12962784 -0.17239523
000170 3f a7 78 bd fe 51 a4 bc e1 00 85 bc c0 b5 b1 be
       -0.060706373 -0.020058628 -0.01623577 -0.34708977
000180 46 b3 4f be cc f7 de bd a4 81 26 be e4 9e 00 3f
       -0.20283231 -0.10887107 -0.16260391 0.5024245
000190 87 08 9d bc 84 f8 83 be 6d 58 0c be af 75 04 be
       -0.019169105 -0.2577554 -0.13705607 -0.12935518
0001a0 a0 83 e9 3e eb 5e 39 3e 8c 55 09 be 88 6c 4c be
       0.45608234 0.18102615 -0.1341154 -0.19963276
0001b0 32 0c a3 be 49 f4 a6 3e 93 fa c7 3c 26 6e 14 bd
       -0.31845242 0.3260825 0.024411475 -0.03623786
0001c0 73 0e ab be 5b 6d 0f 3a 4f 85 05 bc 0b 1a 02 3f
       -0.3340946 0.00054713123 -0.008149459 0.5082099
0001d0 45 84 c5 bb f4 3b ac bb 4d 01 a2 3c 9c 1c 9b 3d
       -0.0060277306 -0.0052561704 0.01977601 0.07573816
0001e0 5d 11 88 be 7c 92 0a 3f 33 da 02 be c8 be f0 3e
       -0.26575747 0.5412977 -0.12778549 0.47020555
0001f0 ad b4 dd 3e 2d f9 78 bd 6b 28 9e bb 5f d8 f4 bd
       0.43301907 -0.060784508 -0.0048265955 -0.11955332
000200 b5 b6 53 be 22 bb e6 3e c2 0a 0d 3f 77 da 6f 3d
       -0.20675166 0.45064646 0.5509454 0.058557954
000210 7c cf da 3d 0b 87 f7 bd 8c 90 2c bd 96 aa d1 bc
       0.10684106 -0.12086304 -0.04213004 -0.025594037
000220 25 ab 3d bf e4 cb 44 be 94 d5 22 bd 52 9c 6e 3b
       -0.7408927 -0.19218403 -0.039754465 0.0036409092
000230 c6 38 8d bc d6 e2 0f bd 8c da 03 bb 5b 6c 06 bd
       -0.017238986 -0.035128437 -0.0020119278 -0.03281818
000240 72 88 6c be b6 34 8e be 11 47 36 3b 22 27 af ba
       -0.23098925 -0.2777459 0.0027813355 -0.0013363103
000250 7e 5f 88 bd b8 4c 4e 3e 0b 66 ce be d2 59 b0 bd
       -0.06658839 0.20146453 -0.40312228 -0.08610882
000260 f9 04 25 be 01 4f b2 be 5e cb 88 bf 06 b3 0d bd
       -0.16115178 -0.348259 -1.0687063 -0.03459456
000270 bc 94 57 3f 81 5d fa bd ab a8 ad 3e 8f 90 23 3d
       0.84211326 -0.12224866 0.33917746 0.039932784
000280 a1 cf c0 ba 5c c5 b3 3c 2c 42 f8 bc 1c 6f 34 3f
       -0.0014710316 0.021944694 -0.03030499 0.7048204
000290 fb 4c 30 ba ac 76 56 3d 77 b0 c2 bd 89 af 1d bf
       -0.0006725338 0.052359268 -0.09506314 -0.6159597
0002a0 fa 0c ed 3e a2 f8 a5 be d9 6f e2 be 4f 51 88 bd
       0.46298963 -0.32416254 -0.44225958 -0.066561334
0002b0 59 33 13 3c 18 92 aa bd cc d3 3a 3d 0c 71 25 bd
       0.00898441 -0.083286464 0.04561214 -0.040391013
0002c0 1b 8b 2d 3e b3 87 25 be 44 d9 58 3d eb 66 c3 3d
       0.16947596 -0.16165046 0.052941576 0.095411144
0002d0 e2 1e 06 bf 0d 19 7b bc 19 73 1f be c1 c8 07 3f
       -0.52390873 -0.015325797 -0.1557125 0.530407
0002e0 c8 08 01 bf cb 10 3c be e6 f7 be 3e f6 ca 32 bd
       -0.50404024 -0.18365781 0.37298506 -0.04365059
0002f0 95 68 e5 3d 33 52 0d 3b 6f 1a 7e be e5 63 7e be
       0.11201588 0.0021563887 -0.24814771 -0.24842794
000300 f9 b1 08 3c 62 1d 07 be a1 7f 8e be 22 14 91 bd
       0.008343213 -0.13194802 -0.27831748 -0.07083918
000310 70 bb ec bd c3 e1 5c be 0b a5 96 bd 76 ce 2d be
       -0.11559188 -0.21570496 -0.07355698 -0.1697329
000320 2d 1e e8 be 45 d3 fe 3c 61 ec af 3e c1 8d 73 bd
       -0.45335522 0.0311066 0.3436003 -0.05946136
000330 8d 41 18 3e 13 99 f0 3d 06 38 06 3e 08 26 da be
       0.14868756 0.117479466 0.13107309 -0.4260714
000340 a1 c7 c7 3e e2 15 ba be c1 fc 26 be 7a 0d 15 3b
       0.39019492 -0.3634482 -0.16307355 0.0022743628
000350 0c 85 c5 bd 60 95 bb 3c 30 2b 16 3c 74 bd e1 bc
       -0.09644517 0.022898376 0.00916557 -0.027556159
000360 c1 a6 7a be 96 3c c2 bc 9e 42 95 bd 05 b9 d8 be
       -0.24477674 -0.02371053 -0.07288097 -0.4232866
000370 00 b0 4a bb 2c b2 7f 3d 9b 5b 48 3c 1e 51 1d 3e
       -0.0030927658 0.062425777 0.012228872 0.15362975
000380 e6 97 c5 bd 5d 29 96 3e d5 c2 05 3b 43 cb fa bc
       -0.09648113 0.29328433 0.0020410318 -0.0306145
000390 f0 e7 90 3b ce b5 3c be 7e 6c 1a 3f 36 22 8c be
       0.0044221804 -0.18428728 0.60321796 -0.2736985
0003a0 3f e3 c2 be b1 e2 c1 bb 1c 04 cc 3c 38 97 37 be
       -0.38064 -0.0059169163 0.024904303 -0.17928779
0003b0 ce 5b 02 be 77 5c a8 bd db 51 be 3b 81 c2 b6 3d
       -0.12730333 -0.08220761 0.005808098 0.089238174
0003c0 e9 1e db be ae 09 8a be 18 c2 0f bb c4 a4 e3 bc
       -0.4279702 -0.2696051 -0.0021935757 -0.027788527
0003d0 e0 64 13 bf dc 5e d1 bc b1 f8 96 bc 3e 88 bd bd
       -0.575758 -0.025557928 -0.018429132 -0.09254502
0003e0 0f 0c 97 be 7b 2c cc bb b3 5d e6 bd 06 23 be 3e
       -0.29501387 -0.0062308884 -0.112483405 0.37136096
0003f0 06 94 ff 3c 79 e3 42 be e0 20 3a bf 7d 6c 0b 3d
       0.031198513 -0.19032086 -0.72706413 0.03403901

linear2.bias f4 [3]
000000 e7 5b 71 3f 2a db 11 bd 68 91 16 be
       0.94280857 -0.0356094 -0.14703906
