model/model.pth (torch, 17107 bytes, 4 tensors)

linear1.weight f4 [256, 11]
-0.1042286 -0.009148165 -0.29638436 0.13772093 -0.24552089 0.029294513 0.10506233 0.0070898915
-0.12459054 0.12699392 -0.2014655 0.22731301 -0.20148434 -0.21389124 0.072809674 -0.29086965
0.2691209 0.29062605 0.18871869 -0.08117056 0.16523184 0.039100878 0.10692983 0.12636067
-0.09026858 -0.2586413 0.3028151 0.15018643 0.14272167 -0.18375897 -0.056541983 0.15976179
0.19418262 -0.1736184 0.28879192 -0.004466433 0.012865135 -0.09319277 0.012327178 -0.034720484
0.2650542 0.008268887 -0.2787594 0.29186115 0.007925565 -0.12564854 -0.13714789 0.16444738
0.23280065 0.10531526 -0.27982983 0.2988626 -0.24614392 -0.089658946 0.11583753 0.2463535
-0.15107892 -0.06487054 -0.21405897 0.2514316 0.030000197 0.28204238 -0.046255108 0.023944315
0.24986309 0.14467746 0.24250835 -0.039704815 -0.18215753 0.14278838 0.060145356 0.16601525
-0.16598648 0.26749477 0.25446516 0.050200995 -0.038717482 -0.20050012 -0.1298582 -0.19875234
0.12178921 0.02592019 -0.12763983 -0.17506185 0.22808996 -0.09647232 -0.28334934 -0.16402785
0.19362062 0.26105258 -0.027418911 0.20992544 0.15366572 -0.11848077 0.24529213 0.24481723
0.17857373 0.27567315 0.20668173 -0.18862753 0.02482338 -0.13532983 0.28371805 0.17448606
-0.06480336 0.02923716 -0.2711322 0.15799971 0.23110299 -0.14049527 -0.109984495 0.24521907
0.14469406 -0.17906614 0.21545812 -0.1618503 -0.17886493 -0.0145474505 -0.089257084 -0.032504175
-0.2983096 -0.14244786 0.03386962 -0.05295741 0.181746 0.114711754 0.10099877 -0.23856567
-0.1451569 -0.18552282 -0.2876589 -0.19697432 -0.16312785 -0.10183257 -0.06299067 -0.15317869
-0.18747672 -0.091842584 -0.07989378 -0.2009112 -0.25930893 0.093510374 -0.16665569 0.2001064
-0.2903992 -0.058870498 0.21146728 0.17105836 0.13898295 0.23273624 -0.16855308 -0.22578946
0.20326133 0.28237575 -0.22948839 0.0536918 0.08500153 0.2874229 -0.0051461128 -0.25488335
0.008070951 -0.20771159 -0.07720647 -0.07439007 -0.16277629 -0.06972142 0.25703532 -0.22547051
0.0059544607 -0.12654255 -0.19862784 0.12170062 -0.0053417697 -0.0065992004 -0.14223644 0.29940936
-0.12111071 -0.17789218 -0.11546913 0.028694745 0.22900973 0.282073 0.116115876 0.08533323
-0.103196315 -0.2508479 0.24637012 0.24458577 0.13784385 -0.045335665 0.22523277 -0.15876418
0.15066878 0.2935697 0.13029112 -0.006795089 0.24726486 0.11604227 -0.26067862 -0.18663177
-0.008417312 -0.08487742 -0.24184303 -0.0071241437 0.2582697 0.15178339 0.21897772 0.15792637
-0.092785686 0.08565328 0.11276711 0.03374678 0.24140897 -0.06824553 -0.2251785 0.13684487
0.29387292 -0.20953901 -0.028869584 0.28460455 -0.03480525 -0.1550419 -0.23063181 0.020311095
0.12696786 -0.2863184 -0.091287054 0.17200415 -0.028872672 -0.23779297 0.29646587 0.018756071
0.0018093387 0.068070255 -0.23292547 0.025625106 0.24309167 -0.24187362 0.034271397 0.13034736
0.23090863 -0.25405553 0.039859153 0.011054759 -0.16612323 -0.15832166 -0.049488086 -0.19900659
0.27278587 0.20831311 0.21478388 -0.15796338 0.24513045 0.25445625 0.13005066 -0.13853022
00000000: ce75 d5bd 2fe2 15bc b1bf 97be b706 0d3e
00000010: d469 7bbe 0cfb ef3c eb2a d73d 5252 e83b
00000020: 5329 ffbd b20a 023e f94c 4ebe bec4 683e
00000030: e951 4ebe 4e06 5bbe 3d1d 953d deec 94be
00000040: 37ca 893e f0cc 943e 793f 413e c03c a6bd
00000050: 8932 293e 3e28 203d 07fe da3d b164 013e
00000060: bcde b8bd a26c 84be 950a 9b3e 79ca 193e
00000070: a125 123e 502b 3cbe 9198 67bd 9898 233e
00000080: cfd7 463e 06c9 31be 89dc 933e 285b 92bb
00000090: 4ac8 523c dadb bebd eff7 493c 1137 0ebd
000000a0: 2fb5 873e 3a7a 073c 8db9 8ebe d36e 953e
000000b0: 3bda 013c 03aa 00be 7f70 0cbe e564 283e
000000c0: 4b63 6e3e 87af d73d db45 8fbe 8504 993e
000000d0: 270d 7cbe 1c9f b7bd 3a3c ed3d 1844 7c3e
000000e0: 6fb4 1abe d8da 84bd 4632 5bbe a5bb 803e
000000f0: f9c2 f53c dc67 903e ff75 3dbd de26 c43c
00000100: 1cdc 7f3e 5426 143e 1c54 783e 84a1 22bd
00000110: 8187 3abe 1e37 123e fa5a 763d e7ff 293e
00000120: 5cf8 29be 13f5 883e 4249 823e 8f9f 4d3d
00000130: 3996 1ebd e74f 4dbe 8cf9 04be bc85 4bbe
00000140: 9f6c f93d 9456 d43c 04b4 02be 6a43 33be
00000150: 6a90 693e 4893 c5bd 2a13 91be ebf6 27be
00000160: 7c44 463e afa8 853e a09d e0bc b2f6 563e
00000170: 8c5a 1d3e 0ca6 f2bd dc2d 7b3e 5eb1 7a3e
00000180: 08dc 363e 0825 8d3e 60a4 533e 9327 41be
00000190: 675a cb3c e793 0abe 7e43 913e 79ac 323e
000001a0: a0b7 84bd c582 ef3c d7d1 8abe adca 213e
000001b0: 43a6 6c3e fedd 0fbe 8d3f e1bd b51a 7b3e
000001c0: ae2a 143e 1d5d 37be 0ea1 5c3e 16bc 25be
000001d0: 5e28 37be 6e58 6ebc 6bcc b6bd 1923 05bd
000001e0: 09bc 98be dadd 11be dfba 0a3d dfe9 58bd
000001f0: a01b 3a3e ffed ea3d 71d8 ce3d 8f4a 74be
00000200: 03a4 14be b2f9 3dbe 0748 93be a3b3 49be
00000210: fd0a 27be 988d d0bd 4101 81bd e0da 1cbe
00000220: e6f9 3fbe f717 bcbd 5a9f a3bd aabb 4dbe
00000230: 24c4 84be 5e82 bf3d caa7 2abe b1e8 4c3e
00000240: 34af 94be 3122 71bd e18a 583e ec29 2f3e
00000250: 8c51 0e3e 6952 6e3e 2e99 2cbe 5a35 67be
00000260: bd23 503e 8e93 903e 01ff 6abe efeb 5b3d
00000270: 4815 ae3d 1829 933e b9a0 a8bb 1280 82be
00000280: 063c 043c 59b2 54be 6d1e 9ebd d259 98bd
00000290: d4ae 26be 1bca 8ebd 229a 833e bee1 66be
000002a0: a31d c33b 5f94 01be 1965 4bbe 2d3e f93d
000002b0: 030a afbb 1b3e d8bb 6ea6 11be 2f4c 993e
000002c0: e408 f8bd 5e29 36be 147b ecbd 3e11 eb3c
000002d0: 8781 6a3e df6b 903e 29ce ed3d 30c3 ae3d
000002e0: 9758 d3bd 236f 80be 7348 7c3e b174 7a3e
000002f0: f026 0d3e e4b1 39bd 6ba3 663e 1493 22be
00000300: eb48 1a3e c54e 963e 096b 053e 57a9 debb
00000310: 0033 7d3e 92a7 ed3d ab77 85be 661c 3fbe
00000320: c4e8 09bc 36d4 adbd b3a5 77be a671 e9bb
00000330: ed3b 843e 1b6d 1b3e b23b 603e 73b7 213e
00000340: 6c06 bebd fd6a af3d 71f2 e63d 103a 0a3d
00000350: ea33 773e 50c4 8bbd 3195 66be 1021 0c3e
00000360: 8376 963e 6591 56be e87f ecbc b0b7 913e
00000370: f38f 0ebd 4ec3 1ebe bf2a 6cbe 7463 a63c
00000380: dd03 023e 5398 92be b5f4 babd db21 303e
00000390: 6286 ecbc 0080 73be 60ca 973e 55a6 993c
000003a0: 5527 ed3a 6b68 8b3d 0484 6ebe beeb d13c
000003b0: 06ed 783e b8ad 77be 2a60 0c3d c779 053e
000003c0: 5073 6c3e 9113 82be 5a43 233d 051f 353c
000003d0: 351c 2abe 131f 22be 05b4 4abd 62c8 4bbe
000003e0: 97aa 8b3e 0850 553e 4ef0 5b3e 27c1 21be
000003f0: 7a03 7b3e 1748 823e 002c 053e deda 0dbe

linear1.bias f4 [256]
-0.09167006 -0.20380014 -0.12180189 0.23503834 -0.20895274 0.30118412 0.28851196 0.019797917
0.30002537 0.24828006 0.078514196 -0.018587071 -0.2304328 -0.27849925 0.2675366 -0.25643668
0.26138133 0.23896377 0.010443632 -0.081103474 -0.17580354 0.098427474 -0.07554613 0.2845014
-0.0741409 0.08900367 -0.21208487 0.20706962 -0.24287495 0.23705971 0.21602818 0.22127274
0.28459194 -0.29664564 0.16945393 -0.2604837 0.17208081 0.058059428 0.22964655 0.26108247
-0.13403706 0.13691893 0.10808226 -0.10708983 -0.017374275 0.28874877 0.09657379 0.24131419
-0.051195856 0.26997185 0.047612976 -0.2554762 -0.29671445 0.17301232 0.18245214 -0.042522445
0.14546883 -0.23313534 -0.11120523 -0.18544285 -0.2015329 0.15139908 -0.25838405 -0.24821177
-0.15962167 -0.18279238 -0.12891747 0.2662306 -0.017163986 0.28965622 0.06462388 0.008849634
0.17868727 -0.12640265 0.17720553 -0.07500766 -0.20757285 -0.06035622 -0.10743179 0.0424429
0.15969448 -0.25068665 0.06519825 -0.050726287 -0.19093469 -0.25109017 0.1567836 0.08697736
-0.21325117 0.12098328 -0.24320473 -0.20950443 -0.2789501 -0.15241006 -0.13514405 -0.17215227
-0.21969335 -0.039601855 0.28662053 -0.15640816 0.03758152 -0.13413657 -0.0015070699 0.10025087
-0.123424076 -0.13527745 0.03534918 0.058405984 -0.21473628 0.17146374 -0.06406555 -0.006889664
0.13097648 -0.048496343 0.20063247 -0.18779844 -0.2147934 0.119939335 0.14139214 0.03891718
0.23479222 -0.020446999 0.16628818 -0.192192 0.20861773 -0.14129195 -0.0074029136 -0.06745673
-0.27623847 0.11930784 -0.102973595 0.034705997 -0.20947829 0.067733675 -0.30426288 0.2444994
0.066503696 0.09875891 -0.2745588 0.04710831 -0.26937595 -0.23342784 0.29553962 -0.23196816
0.088945016 0.2900431 -0.02079083 -0.071684964 -0.03295352 0.023046572 0.2969135 0.20411265
0.16102038 0.2897406 -0.09376572 -0.27324447 0.14150405 0.10887733 -0.29310867 0.027164917
0.07385062 -0.15284961 -0.14150038 -0.2698946 -0.25745568 -0.2754941 -0.0029764818 0.22920562
0.30064186 -0.14876752 0.0068036513 -0.13865359 -0.022155536 0.022209976 -0.1658161 0.15697578
-0.10531966 -0.07095013 0.02838191 0.09777043 -0.27049616 0.25745687 -0.005261378 -0.19160058
0.20623603 0.2894408 0.18348667 0.102771014 -0.10772845 0.18927751 -0.16860868 -0.23448531
-0.26509687 -0.03988192 -0.21541849 -0.17745546 0.10822433 -0.2787592 0.04729752 -0.094213165
-0.11594108 -0.17463467 0.094733365 0.24188788 0.097045206 0.22872908 0.24159297 0.15616593
-0.22925419 -0.2548747 0.19589399 0.14701173 0.14306709 0.11667722 0.14726642 -0.03353572
0.25334588 0.020292724 -0.020886583 0.13814247 -0.22961923 -0.20119116 -0.24759792 -0.032398835
0.27882114 0.18834612 0.13940345 0.14927384 0.09690569 0.17700182 0.12714076 0.1368728
-0.25356808 -0.073032245 -0.090785824 0.016157802 -0.19472906 0.095199496 -0.13174132 -0.1672359
0.060946256 0.11718333 -0.27893114 0.22368518 -0.29281747 -0.15197708 0.2632035 -0.25287086
-0.10315565 -0.059052054 0.26256177 0.21523371 -0.2928115 -0.29809305 -0.06827576 -0.13315262
00000000: 83bd bbbd fcb0 50be 4573 f9bd e4ad 703e
00000010: b5f7 55be ce34 9a3e d7b7 933e 3e2f a23c
00000020: ed9c 993e 213d 7e3e 0dcc a03d ea43 98bc
00000030: 93f6 6bbe 7497 8ebe 8ffa 883e ab4b 83be
00000040: c6d3 853e ebb2 743e c41b 2b3c 9419 a6bd
00000050: d805 34be 5894 c93d eeb7 9abd 2baa 913e
00000060: 2fd7 97bd 8e47 b63d c72c 59be 0f0a 543e
00000070: 36b4 78be c8bf 723e 7e36 5d3e 5295 623e
00000080: 09b6 913e f0e1 97be 5585 2d3e 1f5e 85be
00000090: f435 303e b9cf 6d3d 7728 6b3e 9aac 853e
000000a0: 0341 09be 7a34 0c3e 3b5a dd3d ea51 dbbd
000000b0: 7f54 8ebc e1d6 933e 7bc8 c53d 111b 773e
000000c0: bfb2 51bd c039 8a3e d305 433d c7cd 82be
000000d0: f5ea 97be 242a 313e bcd4 3a3e 042c 2ebd
000000e0: c8f5 143e 08bb 6ebe 91bf e3bd bbe4 3dbe
000000f0: a45e 4ebe 5c08 1b3e ea4a 84be 3a2b 7ebe
00000100: dd73 23be ed2d 3bbe f102 04be 614f 883e
00000110: 7d9b 8cbc d24d 943e 8659 843d 0efe 103c
00000120: ccf9 363e b26f 01be 5e75 353e 9e9d 99bd
00000130: fa8d 54be 1538 77bd 3305 dcbd 9bd8 2d3d
00000140: f386 233e 005a 80be a986 853d 5ec6 4fbd
00000150: 6284 43be e48e 80be e18b 203e 3021 b23d
00000160: 845e 5abe 15c6 f73d a90a 79be 5488 56be
00000170: 8cd2 8ebe 6211 1cbe 3463 0abe af48 30be
00000180: 4bf7 60be 8e35 22bd edbf 923e 7629 20be
00000190: 14ef 193d 195b 09be e088 c5ba 5450 cd3d
000001a0: c3c5 fcbd 2c86 0abe 4dca 103d 1d3b 6f3d
000001b0: d4e3 5bbe 3194 2f3e cd34 83bd b1c2 e1bb
000001c0: b31e 063e 1aa4 46bd 9972 4d3e 3c4e 40be
000001d0: cdf2 5bbe c1a2 f53d 1ac9 103e 9f67 1f3d
000001e0: 5f6d 703e 7780 a7bc 7347 2a3e fbcd 44be
000001f0: e39f 553e d6ae 10be 2494 f2bb c126 8abd
00000200: 216f 8dbe ab57 f43d d2e3 d2bd e027 0e3d
00000210: 7a81 56be f4b7 8a3d 58c8 9bbe 0d5e 7a3e
00000220: 1733 883d 1d42 ca3d f992 8cbe a5f4 403d
00000230: a5eb 89be b507 6fbe f850 973e 1089 6dbe
00000240: ce28 b63d 8780 943e 8851 aabc 91cf 92bd
00000250: 45fa 06bd 2acc bc3c 0c05 983e e802 513e
00000260: 87e2 243e e158 943e 3e08 c0bd b3e6 8bbe
00000270: 70e6 103e 14fb de3d 5712 96be f688 de3c
00000280: fe3e 973d 9c84 1cbe 7ae5 10be a02f 8abe
00000290: 3bd1 83be 900d 8dbe 1411 43bb e1b4 6a3e
000002a0: bbed 993e 8356 18be 2af1 de3b 35fb 0dbe
000002b0: 877f b5bc b2f1 b53c b2cb 29be 42be 203e
000002c0: d5b1 d7bd 4d4e 91bd 2e81 e83c dd3b c83d
000002d0: 797e 8abe 63d1 833e a367 acbb f132 44be
000002e0: 8a2f 533e 9631 943e eee3 3b3e 9c79 d23d
000002f0: bca0 dcbd f7d1 413e c1a7 2cbe eb1c 70be
00000300: c7ba 87be 395b 23bd aa96 5cbe e2b6 35be
00000310: b8a4 dd3d 87b9 8ebe 0bbb 413d d5f2 c0bd
00000320: 8472 edbd 6ed3 32be 9103 c23d 75b1 773e
00000330: a3bf c63d f537 6a3e 2664 773e f6e9 1f3e
00000340: 9cc1 6abe f07e 82be 6f98 483e 3e8a 163e
00000350: 2e80 123e 77f4 ee3d 02cd 163e c05c 09bd
00000360: 8db6 813e ed3c a63c 571a abbc 3875 0d3e
00000370: 4e21 6bbe 0e05 4ebe 4f8a 7dbe a4b4 04bd
00000380: a5c1 8e3e cedd 403e c7bf 0e3e 3edb 183e
00000390: 7e76 c63d f73f 353e 3031 023e 6228 0c3e
000003a0: add3 81be ee91 95bd ebed b9bd 5e5d 843c
000003b0: 0e67 47be f4f7 c23d 32e7 06be e33f 2bbe
000003c0: c8a2 793d d0fd ef3d 10d0 8ebe ba0d 653e
000003d0: 2cec 95be e19f 1bbe 9cc2 863e 4a78 81be
000003e0: 4543 d3bd 91e0 71bd 7f6e 863e 3a66 5c3e
000003f0: 64eb 95be a79f 98be 29d4 8bbd 2959 08be

linear2.weight f4 [3, 256]
-0.03594111 0.026886202 0.03624881 0.03426457 0.02511838 -0.004929375 0.001697758 -0.022151478
0.059148766 -0.01639971 0.045085367 0.0051600114 0.05752814 0.026006868 -0.054034792 -0.008550005
0.057195798 -0.023334578 -0.039825197 0.049538027 -0.045259483 -0.0120799 -0.05408422 0.04614247
0.038213957 0.06419005 0.043754425 0.06194292 0.031675108 0.043508656 -0.027510794 -0.037304442
0.017202439 -0.018350422 -0.03617469 0.045688935 0.0030634562 -0.047439322 -0.039834924 -0.014719836
-0.04236675 0.019780798 0.012651093 0.01451846 -0.029563382 -0.014287962 -0.030866217 0.0108452635
0.02012556 0.006449909 0.014441144 0.060494214 -0.003490252 -0.023885814 0.02430246 -0.036022015
-0.0041865692 0.039045155 0.020990582 0.040775403 0.034625825 0.023188587 0.029403515 0.0026929025
0.037660357 0.009991007 -0.013255468 0.022728544 0.014375525 -0.010258378 0.00088821544 -0.0154906055
-0.05582991 0.04818386 0.007828677 0.037385814 0.031236874 -0.056473993 -0.03950048 -0.054241505
0.033457477 -0.003124401 0.006316416 0.017375715 0.055733107 0.02946002 -0.027837234 0.0583597
0.053083442 0.05801239 -0.00021861395 0.058489755 0.016504453 -0.053334605 0.053485103 -0.025827473
0.06072239 0.028588148 -0.010595916 0.031616252 -0.011163255 0.0016656952 0.042174596 0.050919123
-0.022812843 0.01602973 -0.05029864 -0.057746705 0.05735484 0.022610154 -0.01015008 0.026275674
0.05006629 -0.052348446 -0.022243477 0.022485472 0.0072934106 -0.027531862 -0.041271236 0.050038766
0.0311843 0.05346295 0.057020564 -0.047176175 -0.035950817 0.038983382 -0.040915843 0.019695248
0.009079592 0.0018053148 -0.060419746 -0.052186523 0.029146403 -0.01397828 0.013612673 -0.05246107
0.034723345 -0.043096498 -0.031900305 -0.03226985 0.035094354 -0.047918443 -0.049892988 0.039963398
0.06152437 0.039448533 -0.030254582 0.034355205 -0.007846951 0.008866316 0.04098555 0.0006818548
0.0029029096 -0.046500687 0.03572653 -0.024077095 0.040859792 0.022083903 -0.005544534 0.009168361
-0.050871983 0.058610287 -0.048554823 0.02581482 -0.051898956 0.014688663 -0.038691234 0.0038440886
-0.025922598 0.018042829 -0.012573389 0.029283257 -0.022486893 0.008371184 0.059368134 0.052524485
0.00052607525 0.0043739793 -0.04039805 0.0130435545 0.03572496 0.062301118 -0.017941713 -0.014934901
-0.02172579 0.027290707 -0.004563572 -0.035447363 -0.044379946 -0.015510952 0.019074555 -0.057698943
-0.029160885 -0.017881801 -0.04384221 0.041252486 0.01247341 -0.0391848 0.021557344 -0.058292907
0.016539427 -0.017584853 0.0058387863 -0.016950693 0.059477124 -0.00091374665 0.01948808 0.064179845
-0.051315147 -0.0032419413 -0.022363976 -0.05208422 0.042852163 0.027968056 0.05604303 -0.058000017
-0.040779848 0.04545491 -0.051735546 0.03066402 0.021416374 -0.018501272 0.00874266 0.051555514
0.031619344 -0.030791642 0.022704154 -0.051209375 -0.027336461 0.056546513 -0.0006948277 -0.04861352
0.01546845 -0.029322846 -0.056718115 -0.049963366 -0.04539255 0.042539544 -0.050336685 -0.028101685
-0.013096891 0.030431341 -0.020752933 0.059803464 0.01543688 -0.016423866 -0.022560734 0.040529773
-0.047083333 8.189224e-05 0.014713926 -0.05592267 0.040287368 -0.007301554 -0.005150698 0.0067494884
00000000: fc36 13bd 7440 dc3c a279 143d 0159 0c3d
00000010: 10c5 cd3c 9886 a1bb 4e87 de3a 0477 b5bc
00000020: fa45 723d af58 86bc 6fab 383d 5015 a93b
00000030: a0a2 6b3d 5b0c d53c 9653 5dbd 5215 0cbc
00000040: 2446 6a3d 2828 bfbc bf1f 23bd 63e8 4a3d
00000050: 0262 39bd c6ea 45bc 6a87 5dbd e3ff 3c3d
00000060: 3d86 1c3d 1376 833d d737 333d dcb7 7d3d
00000070: c2bd 013d 2236 323d 515e e1bc 8bcc 18bd
00000080: 21ec 8c3c a053 96bc e92b 14bd 5224 3b3d
00000090: 44c4 483b bc4f 42bd f229 23bd 782b 71bc
000000a0: c288 2dbd 570b a23c 8846 4f3c d6de 6d3c
000000b0: e82e f2bc 0e18 6abc 26db fcbc 55b0 313c
000000c0: 5cde a43c c259 d33b 8c9a 6c3c c8c8 773d
000000d0: b6bc 64bb 2fac c3bc f415 c73c d28b 13bd
000000e0: 7d2f 89bb d0ed 1f3d 71f4 ab3c 1c04 273d
000000f0: cfd3 0d3d fef5 bd3c a4df f03c 687b 303b
00000100: bf41 1a3d 52b1 233c 762d 59bc 3631 ba3c
00000110: 5287 6b3c c212 28bc 21d7 683a 4fcc 7dbc
00000120: e7ad 64bd 705c 453d da43 003c de21 193d
00000130: 79e4 ff3c 4651 67bd 41cb 21bd 572c 5ebd
00000140: b50a 093d c0c2 4cbb f0f9 ce3b 8457 8e3c
00000150: 6648 643d 2456 f13c e90a e4bc 950a 6f3d
00000160: 066e 593d 669e 6d3d bc3b 65b9 f492 6f3d
00000170: 5934 873c 6375 5abd 3213 5b3d 2394 d3bc
00000180: 0ab8 783d b131 ea3c 7e9a 2dbc 0b80 013d
00000190: 16e6 36bc 7553 da3a 45bf 2c3d 9290 503d
000001a0: 00e2 babc c850 833c f205 4ebd cf87 6cbd
000001b0: e9ec 6a3d ee38 b93c 854c 26bc 1540 d73c
000001c0: 4f12 4d3d 536b 56bd f437 b6bc 7433 b83c
000001d0: 90fd ee3b 808a e1bc 070c 29bd 73f5 4c3d
000001e0: 3876 ff3c f7fb 5a3d 658e 693d ce3b 41bd
000001f0: 2a41 13bd 0aad 1f3d 5f97 27bd ee57 a13c
00000200: 92c2 143c 50a0 ec3a b27a 77bd 89c1 55bd
00000210: 70c4 ee3c 2805 65bc b007 5f3c 6be1 56bd
00000220: 113a 0e3d f485 30bd e5a9 02bd 642d 04bd
00000230: 19bf 0f3d 2146 44bd 975c 4cbd a9b0 233d
00000240: fa00 7c3d c994 213d 75d8 f7bc 0bb8 0c3d
00000250: 7f90 00bc 0644 113c 77e0 273d 80be 323a
00000260: be3e 3e3b 8177 3ebd fb55 123d 543d c5bc
00000270: 995c 273d 4de9 b43c ecae b5bb e536 163c
00000280: 245f 50bd 5711 703d 6ce1 46bd 9a79 d33c
00000290: 0094 54bd b8a8 703c b37a 1ebd 1bed 7b3b
000002a0: a15b d4bc 8ece 933c 9e00 4ebc 71e3 ef3c
000002b0: 6f36 b8bc 4a27 093c 002c 733d ea23 573d
000002c0: 50e8 093a 9953 8f3b 6d78 25bd a2b4 553c
000002d0: 5654 123d 752f 7f3d 80fa 92bc 84b1 74bc
000002e0: 49fa b1bc c390 df3c 048a 95bb 4131 11bd
000002f0: bfc7 35bd a621 7ebc 3e42 9c3c ba55 6cbd
00000300: cfe2 eebc db7c 92bc e493 33bd 5ef8 283d
00000310: 465d 4c3c 3e80 20bd 0799 b03c 8bc4 6ebd
00000320: b17d 873c 1c0e 90bc 4a53 bf3b 2edc 8abc
00000330: 499e 733d 8088 6fba 77a5 9f3c b970 833d
00000340: d52f 52bd c076 54bb a834 b7bc 4356 55bd
00000350: c085 2f3d 441d e53c 608d 653d 6d91 6dbd
00000360: c508 27bd ed2e 3a3d a7e8 53bd 1c33 fb3c
00000370: 6471 af3c fb8f 97bc 603d 0f3c e02b 533d
00000380: 4983 013d c13e fcbc 10fe b93c ecc0 51bd
00000390: b7f0 dfbc 519d 673d 1925 36ba f81e 47bd
000003a0: 626f 7d3c 7736 f0bc 4151 68bd 63a6 4cbd
000003b0: 8aed 39bd f23d 2e3d d72d 4ebd 8135 e6bc
000003c0: 5894 56bc 264b f93c 0e02 aabc 7af4 743d
000003d0: f8ea 7c3c 588b 86bc 4ad1 b8bc 8c02 263d
000003e0: 74da 40bd 90bd ab38 ae12 713c 2b0f 65bd
000003f0: 5e04 253d e041 efbb 30c7 a8bb d02a dd3b

linear2.bias f4 [3]
-0.036209807 -0.045523986 -0.023245417
00000000: bc50 14bd 5c77 3abd 2c6d bebc
