model/model.pth (torch, 17107 bytes, 4 tensors)

linear1.weight f4 [256, 11]
-0.3046299 -0.30850986 0.19638921 -0.22745623 0.2509081 0.1729867 -0.042435247 -0.18788798
0.05156212 0.31835973 0.11423258 0.13696676 -0.2386394 -0.038707543 -0.097700045 0.16517927
0.03243816 0.1446527 -0.3229394 -0.21207032 -0.025838628 -0.109769136 0.23078467 -0.21559173
-0.11012308 -0.24513358 -0.1989604 0.22128119 0.2453345 -0.019869234 0.17302789 -0.04960057
0.017662061 0.13932379 0.11616774 -0.016115123 -0.22713313 0.2048523 -0.1528835 0.17724968
-0.1731752 -0.16309622 0.06485205 -0.265771 0.008459318 0.23942241 -0.2794331 0.24200684
0.1550149 -0.24540964 -0.25539315 -0.10953198 0.22001587 -0.26891643 -0.050988894 0.08012163
-0.088873334 0.35523134 0.16272071 0.07161518 0.2844215 0.15714186 -0.23641205 0.097354144
-0.22368786 -0.27662563 0.24386753 0.14147504 -0.24234276 -0.26603675 0.07933178 -0.046179697
-0.10697178 0.33757126 -0.2304393 -0.005820968 -0.2175042 -0.023377046 -0.116412655 -0.251857
-0.26040798 0.0705217 -0.18160893 0.19128107 -0.24534386 -0.21224494 0.13808008 0.23961921
0.05400493 -0.18834409 0.1289436 -0.20219366 0.14659292 -0.26140878 0.29960275 0.15204471
-0.20513184 0.25658205 0.120134 -0.10143849 0.06352883 0.045342565 -0.2070199 0.21599291
-0.23080492 0.22108509 0.07815928 -0.08870774 0.18320684 -0.12871829 -0.19943699 0.15046097
-0.14864874 -0.09060311 -0.26540768 -0.14171347 -0.2926504 -0.091226295 -0.20795777 0.02579909
0.17351551 -0.11499687 0.056371033 -0.028095175 0.11414345 0.27254683 0.13994971 0.008148041
0.091783635 0.27446815 -0.26736784 -0.16845308 0.13667427 0.10575351 -0.1767409 0.20887269
0.18555331 -0.22008382 -0.097302936 0.0110194115 -0.11433268 0.3145251 0.193465 0.2097336
-0.113433234 -0.33399463 0.17287707 -0.062892795 -0.27366188 -0.19488433 0.11568932 -0.23552373
0.12519453 0.06882584 -0.15225379 -0.16896854 -0.16491139 -0.10934464 -0.24662952 -0.29292008
-0.025457973 0.13817199 0.010544395 -0.22028857 0.26993865 0.085154064 -0.13910279 -0.1805988
0.123949595 -0.055785958 0.22404405 0.132682 0.11431673 0.036739703 0.2831667 0.12512133
-0.29359087 0.14864354 -0.21100576 0.14220019 0.16831434 0.075813286 0.11894241 -0.13166112
-0.11284865 -0.20671314 -0.19427627 0.21881215 0.07900134 0.033708237 -0.09877382 -0.20492893
0.1659844 -0.011592575 -0.22899108 0.15432379 -0.18353508 -0.20192555 0.123709455 -0.019409403
0.15335152 -0.013198569 0.23751147 -0.22141162 -0.21540771 0.12785493 0.12297491 -0.046735838
-0.078302816 -0.39047432 0.1802097 -0.1798378 -0.26128125 -0.08806386 0.16523656 0.1881743
-0.1918319 0.052281532 0.22572286 -0.29103276 0.24840093 0.09305731 0.097241685 -0.03313919
-0.25526074 0.09228547 0.066190906 0.05177027 0.18153979 -0.1842314 -0.25804353 -0.29666868
-0.04541826 0.31132066 -0.117864944 -0.0654345 -0.017035438 0.0054950593 0.1320161 0.16262454
0.063635245 -0.07205505 -0.23543572 -0.08764146 -0.23213491 0.021628888 -0.19592892 -0.18209714
0.058559265 -0.17158516 -0.212217 -0.09437444 0.110784486 0.123091444 0.34559506 0.15558225
00000000: 73f8 9bbe 01f5 9dbe 411a 493e 49ea 68be
00000010: 0777 803e 6d23 313e 95d0 2dbd b565 40be
00000020: cd32 533d 0c00 a33e c5f2 e93d 0441 0c3e
00000030: e35d 74be cd8b 1ebd f616 c8bd c124 293e
00000040: e0dd 043d d61f 143e 5058 a5be f628 59be
00000050: 88ab d3bc a4ce e0bd d152 6c3e 14c4 5cbe
00000060: 3688 e1bd 4c04 7bbe 46bc 4bbe 8997 623e
00000070: f838 7b3e cec4 a2bc 392e 313e f829 4bbd
00000080: 07b0 903c e5aa 0e3e 5ae9 ed3d dd03 84bc
00000090: 9695 68be cdc4 513e 7e8d 1cbe f180 353e
000000a0: d754 31be b202 27be 27d1 843d 2313 88be
000000b0: f498 0a3c 262b 753e db11 8fbe a4d0 773e
000000c0: 3abc 1e3e aa4c 7bbe e4c2 82be 4d52 e0bd
000000d0: d74b 613e 6aaf 89be bbd9 50bd cf16 a43d
000000e0: 3903 b6bd e2e0 b53e 42a0 263e fbaa 923d
000000f0: b29f 913e cce9 203e 0016 72be 9c61 c73d
00000100: 6e0e 65be e0a1 8dbe 69b8 793e d5de 103e
00000110: b328 78be f835 88be b378 a23d ec26 3dbd
00000120: 0514 dbbd 24d6 ac3e 48f8 6bbe d2bd bebb
00000130: 6cb9 5ebe 3881 bfbc c269 eebd 67f3 80be
00000140: 3254 85be ae6d 903d b1f7 39be 2fdf 433e
00000150: 6c3b 7bbe bd56 59be dd64 0d3e bd5e 753e
00000160: 4634 5d3d 46dd 40be cb09 043e db0b 4fbe
00000170: 741c 163e 5fd7 85be 8865 993e 9cb1 1b3e
00000180: 150e 52be b95e 833e d108 f63d fcbe cfbd
00000190: 671b 823d 20b9 393d 06fd 53be 3f2d 5d3e
000001a0: 2058 6cbe 2164 623e f911 a03d 67ac b5bd
000001b0: 939a 3b3e bace 03be 3639 4cbe 7112 1a3e
000001c0: 6037 18be 208e b9bd 84e3 87be 561d 11be
000001d0: 46d6 95be dad4 babd e2f2 54be 9d58 d33c
000001e0: 0dae 313e 7b83 ebbd 50e5 663d da27 e6bc
000001f0: 0bc4 e93d 428b 8b3e fa4e 0f3e 5c7f 053c
00000200: 0ff9 bb3d 1787 8c3e 70e4 88be f77e 2cbe
00000210: 57f4 0b3e 4c95 d83d 91fb 34be b9e2 553e
00000220: b001 3e3e a75d 61be c346 c7bd c38a 343c
00000230: 4127 eabd 6f09 a13e b01b 463e 68c4 563e
00000240: af4f e8bd 5801 abbe b006 313e f0cd 80bd
00000250: 691d 8cbe c28f 47be 86ee ec3d 222d 71be
00000260: ff32 003e 90f4 8c3d 6be8 1bbe 1706 2dbe
00000270: 88de 28be 15f0 dfbd 738c 7cbe 9ff9 95be
00000280: 3d8d d0bc f57c 0d3e 66c2 2c3c 5493 61be
00000290: 6635 8a3e 4165 ae3d f670 0ebe e4ee 38be
000002a0: 49d9 fd3d d17f 64bd ce6b 653e cadd 073e
000002b0: e41e ea3d 5f7c 163d 3afb 903e ce1f 003e
000002c0: 8b51 96be 0336 183e e511 58be ed9c 113e
000002d0: 985a 2c3e ff43 9b3d 1498 f33d 2cd2 06be
000002e0: 311d e7bd 9cac 53be 5cf0 46be 4b10 603e
000002f0: 74cb a13d a611 0a3d ee49 cabd e4d8 51be
00000300: d1f7 293e c9ee 3dbc a37c 6abe 0e07 1e3e
00000310: 9ff0 3bbe 92c5 4ebe 625b fd3d 7800 9fbc
00000320: 2e08 1d3e d03e 58bc 3536 733e bab9 62be
00000330: d793 5cbe 67ec 023e 45da fb3d 146e 3fbd
00000340: 3a5d a0bd 40ec c7be e488 383e 6627 38be
00000350: a8c6 85be d35a b4bd c633 293e c4b0 403e
00000360: 956f 44be 2925 563d e523 673e 3f02 95be
00000370: d05c 7e3e d594 be3d a626 c73d f6bc 07bd
00000380: 89b1 82be 2a00 bd3d 198f 873d 100d 543d
00000390: 91e5 393e 28a7 3cbe 481e 84be f5e4 97be
000003a0: 7f08 3abd 6c65 9f3e 2d63 f1bd 8602 86bd
000003b0: e78d 8bbc e60f b43b 3b2f 073e 0c87 263e
000003c0: 3253 823d 9991 93bd 1016 71be 5e7d b3bd
000003d0: c6b4 6dbe 112f b13c 97a1 48be ac77 3abe
000003e0: d7db 6f3d 05b4 2fbe 6a4f 59be 6347 c1bd
000003f0: fae2 e23d 5e17 fc3d d6f1 b03e f450 1f3e

linear1.bias f4 [256]
-0.027754888 0.24262145 -0.08289202 -0.2427695 -0.16668907 0.27781555 0.18020737 -0.22906344
-0.13590626 -0.13563201 -0.03332979 -0.2658007 0.39328372 0.18402009 0.023506887 0.18328217
-0.058261026 -0.026403096 -0.16325594 -0.042669144 -0.17269568 0.2041188 -0.2294146 -0.21967882
0.22980009 0.2624075 0.24185762 0.24146886 -0.18199964 -0.09827486 -0.15370105 -0.24910274
-0.013407211 0.2081576 -0.059844933 0.2583811 -0.29033726 -0.23750013 0.2908543 0.21548949
0.044356298 0.11424753 0.14358379 0.29809946 0.3165303 -0.24389885 0.32222548 -0.09274379
0.1065324 0.08311097 0.028793395 -0.04138893 -0.20093925 -0.24992739 0.39308614 0.070670016
0.34005812 -0.16668159 -0.28623137 0.19959384 0.2216279 0.13655736 -0.08392216 0.30143213
0.30815756 0.04329053 0.25862035 0.32490668 0.030237356 0.062312804 0.3451602 0.09232644
-0.0074960846 0.11282966 -0.1669214 -0.19815536 0.19466874 0.0028701457 0.30850035 0.16162503
-0.28313395 0.000830178 -0.12834716 0.054521438 0.18674447 -0.053490143 -0.09531571 0.11121538
0.17386533 -0.053144164 -0.12307782 0.18287395 0.4435524 0.19357476 -0.103646114 0.041823793
-0.07297003 0.062602475 -0.069292195 -0.27250513 0.04222465 0.2142975 -0.15572664 0.21817
0.3465477 -0.15062882 0.06973402 -0.066054024 -0.05975608 0.072790444 0.09122947 0.082155734
0.17174861 0.14381376 -0.24762535 -0.037539758 0.17365524 0.21624978 0.062778644 -0.028924555
0.22262464 -0.23786277 -0.17829666 -0.010330623 0.34837222 0.401972 -0.18190199 -0.23990099
0.21471721 0.21566367 -0.1151274 0.30088845 0.14083388 0.18060887 0.2230263 0.18642192
0.32988003 -0.12360054 -0.07415354 -0.206092 0.26548338 0.15108371 -0.24370128 0.07070467
-0.23155443 0.26358432 -0.1951275 -0.09555935 -0.08140576 0.010735213 -0.29886195 0.26934692
0.054972786 -0.029834615 0.3048258 0.04358609 0.24990265 0.25073445 0.3489948 -0.0836281
0.3782317 0.20984955 0.2207299 0.0441876 -0.0061347373 -0.13526864 -0.15649612 -0.27287075
-0.19603269 -0.08902943 -0.21641849 -0.18850489 -0.12758735 0.0841013 0.2945312 -0.011383371
0.11250266 0.21324128 0.23008142 0.26817966 -0.05167241 0.11463133 -0.2724108 0.26897308
-0.077000424 0.12388232 0.21417196 -0.17828225 -0.19624011 -0.18293974 -0.08873577 0.02285597
0.09291749 0.35966742 -0.2016505 0.10883781 -0.25454435 0.117998615 0.2452185 -0.08717967
0.21122675 0.33586746 0.19617175 -0.17737986 -0.12155973 -0.0872136 0.022361543 0.078804
-0.07688313 0.29144174 0.2707343 0.3778755 0.07542162 0.053291395 0.120924674 -0.041529108
-0.2740636 0.18814641 0.14494643 -0.15631959 -0.16960007 -0.0056011993 -0.2304008 -0.010781991
0.0062477454 -0.3498981 -0.17729917 0.211677 -0.08670548 -0.09395191 -0.08968753 -0.31419417
-0.23583634 -0.114608735 0.30815455 0.023974981 0.2449336 -0.010257859 -0.2099664 0.29786086
0.21775715 -0.009910042 -0.23477316 0.09165718 0.2070357 0.28835717 -0.012643185 0.20247298
0.014501602 0.33827356 0.11931542 -0.16627532 0.29294148 -0.14273694 0.3035499 0.07004274
00000000: 385e e3bc c271 783e 4bc3 a9bd 9198 78be
00000010: 8ab0 2abe d73d 8e3e 4888 383e 9b8f 6abe
00000020: 032b 0bbe 1ee3 0abe d184 08bd 0817 88be
00000030: 7c5c c93e c36f 3c3e 8491 c03c 52ae 3b3e
00000040: 1da3 6ebd 4e4b d8bc 912c 27be d7c5 2ebd
00000050: 23d7 30be 8504 513e a9eb 6abe 7cf3 60be
00000060: b750 6b3e 475a 863e 86a9 773e 9d43 773e
00000070: 1d5e 3abe 5444 c9bd cf63 1dbe ca14 7fbe
00000080: eba9 5bbc 4427 553e f61f 75bd 874a 843e
00000090: 16a7 94be 3c33 73be dbea 943e 47a9 5c3e
000000a0: f3ae 353d 9cfa e93d a107 133e 7ea0 983e
000000b0: 4210 a23e 9fc0 79be bdfa a43e 75f0 bdbd
000000c0: a92d da3d 1636 aa3d 20e0 eb3c 7087 29bd
000000d0: 05c3 4dbe f7ec 7fbe 9642 c93e 71bb 903d
000000e0: 191c ae3e 94ae 2abe eb8c 92be 5462 4c3e
000000f0: 6df2 623e b1d5 0b3e 62df abbd 5055 9a3e
00000100: d4c6 9d3e 6951 313d e369 843e 2b5a a63e
00000110: 55b4 f73c b63b 7f3d d6b8 b03e a515 bd3d
00000120: b7a1 f5bb 3d13 e73d 72ed 2abe 3de9 4abe
00000130: 3e57 473e 0e19 3c3b c2f3 9d3e 0881 253e
00000140: eff6 90be 4da0 593a 706d 03be df51 5f3d
00000150: f139 3f3e 7b18 5bbd e234 c3bd e4c4 e33d
00000160: c109 323e b2ad 59bd 3910 fcbd 4f43 3b3e
00000170: 4d19 e33e 7638 463e 6a44 d4bd 6d4f 2b3d
00000180: 5071 95bd ba35 803d 11e9 8dbd cb85 8bbe
00000190: c1f3 2c3d ce70 5b3e ce76 1fbe f567 5f3e
000001a0: b36e b13e 713e 1abe b6d0 8e3d 5547 87bd
000001b0: cbc2 74bd 2813 953d 84d6 ba3d 4441 a83d
000001c0: dede 2f3e ea43 133e 8091 7dbe 4ac3 19bd
000001d0: aed2 313e 9570 5d3e 1792 803d 30f3 ecbc
000001e0: b7f7 633e 4c92 73be 6693 36be c641 29bc
000001f0: d85d b23e 46cf cd3e 8444 3abe 9ba8 75be
00000200: d4de 5b3e f0d6 5c3e eac7 ebbd 0d0e 9a3e
00000210: c236 103e 88f1 383e 0261 643e 63e5 3e3e
00000220: 09e6 a83e 4822 fdbd d0dd 97bd c809 53be
00000230: 70ed 873e b0b5 1a3e d48c 79be 9ccd 903d
00000240: 9b1c 6dbe 86f4 863e 81cf 47be 9fb4 c3bd
00000250: 10b8 a6bd bfe2 2f3c 6f04 99be d7e7 893e
00000260: 252b 613d b967 f4bc 2112 9c3e 5487 323d
00000270: 7be6 7f3e 4460 803e 72af b23e 3645 abbd
00000280: 96a7 c13e cde2 563e 0507 623e 0ffe 343d
00000290: e805 c9bb dd83 0abe 8540 20be b7b5 8bbe
000002a0: cbbc 48be 1055 b6bd cf9c 5dbe 6d07 41be
000002b0: 42a6 02be 4d3d ac3d cbcc 963e 5281 3abc
000002c0: cb67 e63d ec5b 5a3e 779a 6b3e d84e 893e
000002d0: 73a6 53bd d5c3 ea3d 6e79 8bbe d7b6 893e
000002e0: 66b2 9dbd 04b6 fd3d e54f 5b3e 9f8f 36be
000002f0: 2bf3 48be 8e54 3bbe 19bb b5bd 713c bb3c
00000300: 864b be3d 5426 b83e 787d 4ebe 5ce6 de3d
00000310: a353 82be 42a9 f13d 8f1a 7b3e 418b b2bd
00000320: d34b 583e d2f6 ab3e 3fe1 483e 11a3 35be
00000330: 4ff4 f8bd 0b9d b2bd 8e2f b73c fe63 a13d
00000340: e774 9dbd da37 953e b09d 8a3e e678 c13e
00000350: a676 9a3d 1448 5a3d 5ba7 f73d 6d1a 2abd
00000360: 1052 8cbe 74a9 403e d66c 143e 3e12 20be
00000370: a4ab 2dbe 448a b7bb 30ee 6bbe f3a6 30bc
00000380: e3b9 cc3b d825 b3be ea8d 35be dbc1 583e
00000390: a592 b1bd dc69 c0bd 19ae b7bd 0fde a0be
000003a0: 157f 71be fcb7 eabd 6fc6 9d3e 2e67 c43c
000003b0: e0cf 7a3e 9410 28bc 6f01 57be 3881 983e
000003c0: bbfb 5e3e bb5d 22bc 6068 70be c2b6 bb3d
000003d0: 2b01 543e 8da3 933e 5d25 4fbc 1455 4f3e
000003e0: 2198 6d3c 3132 ad3e a55b f43d 1444 2abe
000003f0: 6dfc 953e a229 12be e46a 9b3e 9172 8f3d

linear2.weight f4 [3, 256]
0.13015568 0.038367692 -0.0017649612 0.01139063 0.055821642 0.014507136 -0.097792834 0.0031491867
-0.044649314 -0.0735327 -0.047569886 0.14801866 -0.092535414 -0.0064225765 0.03100032 -0.057743352
0.016498577 -0.012490702 0.01644144 0.07930115 -0.020981636 0.052422203 0.04625441 0.00230642
-0.12033923 -0.077520244 -0.013711176 -0.041463103 0.17524453 -0.115051776 -0.055817444 -0.012005389
-0.0022938177 -0.059286214 0.032912795 -0.022348573 0.017397845 -0.047902394 -0.10038076 -0.08524178
0.15961964 -0.011148199 -0.00993241 -0.11525203 -0.0018415584 0.018818995 -0.065329805 -0.105830155
-0.035911027 0.002585829 0.037337974 -0.00015892359 0.016340049 -0.052008405 -0.0730662 -0.10487944
-0.018933475 -0.0067302496 -0.03078575 -0.014822228 -0.08498165 -0.012859684 0.022296473 -0.120654665
-0.039103232 0.07009691 -0.07704064 -0.046261203 0.02431149 -0.099323556 -0.0019376258 -0.076232456
-0.07356309 -0.013041612 -0.06106059 0.06777005 -0.07094575 -0.09702021 -0.08737604 0.008508748
-0.0063466704 -0.009771202 0.0019328569 0.034950335 0.0096164085 -0.02449487 -0.019965041 -0.04981518
-0.11675301 0.013864085 0.17507638 -0.063191846 -0.0819468 -0.041737504 -0.01356888 -0.038822964
-0.118320934 -0.01550557 0.15247613 -0.05034514 0.010608873 -0.11783627 -0.037855357 -0.080798514
-0.06719702 0.05629551 -0.08884905 0.08390237 0.0702445 -0.059738357 -0.07684175 -0.012050961
0.06302116 -0.11938098 -0.07542392 -0.04274134 -0.0996988 -0.025532514 -0.01802423 0.022145946
-0.13100749 -0.055249207 0.0023432367 -0.06756655 -0.048738487 -0.114068545 -0.10990532 0.028259825
0.01717116 0.050519485 -0.0587171 -0.020712359 -0.01723467 0.000114853974 0.0150289135 0.018586433
-0.03579197 -0.09885705 0.0147598 -0.031885207 -0.008095717 -0.008128326 0.1134094 -0.034718037
0.04276876 -0.043142844 -0.049796008 0.054890435 0.08708685 -0.033619285 0.0023131752 -0.08057777
-0.07887973 -0.07390838 -0.031466916 0.0016317006 -0.054834303 -0.006064477 -0.100255586 -0.06819414
-0.11685374 -0.10764809 -0.034853928 0.20350023 -0.061178498 -0.01425695 -0.010988361 0.06531473
0.1480713 -0.07061583 -0.037829474 0.076728605 -0.056555204 -0.0013693498 -0.07232756 -0.11116883
-0.026022166 0.02489628 -0.06766437 0.12677088 0.018052481 0.010577958 -0.048584484 -0.1093113
-0.063991584 -0.060366213 0.028618803 -0.017424366 -0.028749837 -0.048612352 -0.10048602 -0.08821927
-0.08114292 -0.12973832 -0.045720696 -0.030337846 0.11449635 -0.07474187 -0.039832655 -0.015770346
0.10974865 -0.070162795 -0.022550438 -0.04993599 0.032325726 0.10697603 0.087330684 -0.02783883
0.009157731 -0.11026722 -0.024487438 0.02946161 -0.004872311 -0.09651109 -0.071992055 -0.0658075
-0.01376122 -0.064317174 0.17931171 -0.0015737953 -0.06847373 -0.10323801 -0.04293398 -0.06172502
-0.079597995 -0.016949886 0.049731746 -0.081105 -0.036482815 0.13158861 -0.069369264 -0.00021200185
-0.0474741 0.06337503 -0.042639356 -0.051824328 0.023283614 -0.014402699 0.015684394 -0.0031677135
-0.024891082 -0.1129523 -0.05884944 -0.09624369 0.039714713 -0.076786086 -0.049806427 -0.05267811
0.06673765 -0.103619285 0.09849032 -0.008384274 -0.037332296 -0.09411231 0.040970817 -0.05347787
00000000: 8847 053e 7127 1d3d 4556 e7ba c49f 3a3c
00000010: 3ca5 643d 57af 6d3c 9c47 c8bd 9662 4e3b
00000020: 33e2 36bd 5098 96bd a4d8 42bd 3492 173e
00000030: 3583 bdbd 7a74 d2bb 62f4 fd3c 4b84 6cbd
00000040: 0628 873c cda5 4cbc 33b0 863c a468 a23d
00000050: aee1 abbc aab8 563d 4475 3d3d 4e27 173b
00000060: 6a74 f6bd efc2 9ebd d7a4 60bc 37d5 29bd
00000070: 4d73 333e 44a0 ebbd d5a0 64bd 40b2 44bc
00000080: e053 16bb 1ad6 72bd 91cf 063d 5b14 b7bc
00000090: ed85 8e3c 4d35 44bd 6e94 cdbd 3e93 aebd
000000a0: 5573 233e f0a6 36bc 8cbb 22bc 4209 ecbd
000000b0: 7260 f1ba 4b2a 9a3c a2cb 85bd 7bbd d8bd
000000c0: 7117 13bd 0377 293b b4ef 183d baa4 26b9
000000d0: 91db 853c c406 55bd bba3 95bd 08cb d6bd
000000e0: 601a 9bbc 6d89 dcbb 6632 fcbc eed8 72bc
000000f0: dc0a aebd 6db1 52bc 18a7 b63c cb19 f7bd
00000100: b62a 20bd f88e 8f3d 7cc7 9dbd 637c 3dbd
00000110: e428 c73c 266a cbbd eff7 fdba c31f 9cbd
00000120: 3fa8 96bd 7cac 55bc ab1a 7abd 06cb 8a3d
00000130: 014c 91bd 88b2 c6bd 36f2 b2bd 4768 0b3c
00000140: bbf7 cfbb 6417 20bc ea57 fd3a 1528 0f3d
00000150: 248e 1d3c 77a9 c8bc ba8d a3bc 010b 4cbd
00000160: 341c efbd 3026 633c 3947 333e ba6a 81bd
00000170: b9d3 a7bd f2f4 2abd 0250 5ebc d404 1fbd
00000180: 3f52 f2bd 130b 7ebc b422 1c3e b536 4ebd
00000190: d7d0 2d3c 2454 f1bd 380e 1bbd b179 a5bd
000001a0: 979e 89bd 1f96 663d 7ef6 b5bd 01d5 ab3d
000001b0: 59dc 8f3d 35b0 74bd 355f 9dbd 6571 45bc
000001c0: 3d11 813d 047e f4bd db77 9abd 8b11 2fbd
000001d0: e22e ccbd 9029 d1bc 8da7 93bc 6a6b b53c
000001e0: d426 06be fe4c 62bd fd90 193b 5560 8abd
000001f0: 02a2 47bd c59c e9bd 0a16 e1bd 2681 e73c
00000200: 88aa 8c3c 85ed 4e3d 5881 70bd f7ac a9bc
00000210: b92f 8dbc c2dd f038 d53b 763c 9342 983c
00000220: 9a9a 12bd 9175 cabd 17d3 713c 109a 02bd
00000230: e6a3 04bc ac2c 05bc 3043 e83d 8034 0ebd
00000240: 4c2e 2f3d 8db6 30bd e6f6 4bbd cbd4 603d
00000250: 975a b23d 60b4 09bd a498 173b f505 a5bd
00000260: b28b a1bd 475d 97bd 74e3 00bd c9de d53a
00000270: ef99 60bd 85b8 c6bb cd52 cdbd 5fa9 8bbd
00000280: 0351 efbd 9a76 dcbd fec2 0ebd 5d62 503e
00000290: 4e96 7abd fb95 69bc 8708 34bc bbc3 853d
000002a0: 01a0 173e 089f 90bd 14f3 1abd e323 9d3d
000002b0: 6ea6 67bd c17b b3ba 7920 94bd 7cac e3bd
000002c0: 702c d5bc 49f3 cb3c 9e93 8abd 3ad0 013e
000002d0: cce2 933c 2c4f 2d3c 8600 47bd 9ade dfbd
000002e0: 050e 83bd 9042 77bd fb71 ea3c 8bbd 8ebc
000002f0: c784 ebbc bf1d 47bd 9dcb cdbd 4eac b4bd
00000300: 422e a6bd 1fda 04be a045 3bbd 1387 f8bc
00000310: 107d ea3d 4412 99bd 9127 23bd d030 81bc
00000320: e6c3 e03d 83b1 8fbd b2bb b8bc ae89 4cbd
00000330: fb67 043d 4016 db3d 6eda b23d 420e e4bc
00000340: 4f0a 163c c8d3 e1bd e199 c8bc 7959 f13c
00000350: e8a7 9fbb 9ba7 c5bd 9270 93bd 15c6 86bd
00000360: bd76 61bc b9b8 83bd 7d9d 373e cf47 ceba
00000370: f43b 8cbd 736e d3bd 8adb 2fbd 60d3 7cbd
00000380: 4604 a3bd 7dda 8abc 84b3 4b3d 611a a6bd
00000390: 016f 15bd 2abf 063e 7911 8ebd d04c 5eb9
000003a0: 3474 42bd c5ca 813d 9ba6 2ebd bf45 54bd
000003b0: 47bd be3c 4cf9 6bbc 8f7c 803c 6a99 4fbb
000003c0: 62e8 cbbc 8953 e7bd 1c0c 71bd 691b c5bd
000003d0: e5ab 223d 0642 9dbd d301 4cbd 00c5 57bd
000003e0: c0ad 883d 5936 d4bd 4bb5 c93d 325e 09bc
000003f0: c0e9 18bd f4bd c0bd 04d1 273d 9c0b 5bbd

linear2.bias f4 [3]
-0.027931746 -0.07595542 -0.07000437
00000000: 1ed1 e4bc 848e 9bbd 735e 8fbd
