model/model.pth (torch, 17107 bytes, 4 tensors)

linear1.weight f4 [256, 11]
000000 90 95 a0 3d 7d 21 83 be 48 bb d5 3d d5 96 93 3e
       0.07841027 -0.25611487 0.10436112 0.28826013
000010 11 39 9f bc 20 34 c7 bd 89 5e 05 3e 26 5f c6 bd
       -0.019436391 -0.09726739 0.13024344 -0.09686117
000020 a0 f8 63 3e 3b 58 95 bc 57 00 67 3e 57 ed ff 3d
       0.22262812 -0.018230548 0.22558723 0.12496441
000030 1b b5 30 bd c4 92 7a bd d5 ae 92 be dc cb 85 be
       -0.043141466 -0.061175123 -0.2864901 -0.26132095
000040 12 ec 94 be d0 6f 20 be 7a 57 3f be 5a 63 83 bd
       -0.29086357 -0.15667653 -0.18685713 -0.06415434
000050 4a b4 59 be 71 46 78 be 05 2c 8e bd d1 f2 cf bd
       -0.21260181 -0.24245621 -0.0694199 -0.101537354
000060 8b c5 99 3e 33 24 0b 3e 04 58 8d 3e 2b ee 5d 3c
       0.30033526 0.13588028 0.27606213 0.013545553
000070 a8 7b ec 3c 39 cf 6b be d7 78 84 3e 7a 2d 78 3e
       0.028867558 -0.23028268 0.25873443 0.24236098
000080 42 da 39 bc 37 8d e4 bd e7 13 42 be db ae 76 be
       -0.011343541 -0.11159747 -0.18952905 -0.2409014
000090 e2 8d 50 bd 58 d6 70 3d 23 84 e5 3c 43 53 81 be
       -0.05091656 0.058798164 0.02801711 -0.25258836
0000a0 12 b9 d4 3d 7b c6 38 be d6 6d c7 bc ea 76 00 be
       0.10386862 -0.18044464 -0.024344366 -0.12545362
0000b0 ee 53 81 be f2 c1 45 bd f8 d4 96 3e 95 4f bc bd
       -0.25259346 -0.048280664 0.29459357 -0.091948666
0000c0 32 37 8b be 32 96 6f 3e 1e 9e dd 3d 07 1e 68 3e
       -0.27190548 0.23397139 0.10821174 0.22667705
0000d0 a9 07 80 3e f8 1f 03 be ff 27 1d be 02 4f 01 3e
       0.25005844 -0.12805164 -0.15347289 0.12627795
0000e0 05 6d 04 3d a0 f6 92 3e d6 3f 08 3e 5d b6 03 3e
       0.03233053 0.28703785 0.13305601 0.12862535
0000f0 70 92 5f 3e 26 c9 91 be d5 4c ac 3d 3a 5a 3e bd
       0.21833205 -0.28473777 0.08413092 -0.046472766
000100 f6 3c 5d 3e 05 db f2 3c d3 4d 91 bd 87 d3 3d bd
       0.21605286 0.029645452 -0.07094922 -0.046344306
000110 7e e0 30 3e dd 9f 74 3e 52 92 46 3d 2e c9 63 bc
       0.17273137 0.23889108 0.048479386 -0.013902945
000120 e4 96 35 be 5e b7 55 3e 00 eb 75 be ee 28 88 3e
       -0.17733341 0.2087073 -0.24015427 0.26593727
000130 6f 5b 02 be 27 76 f6 bd 10 4d 31 3e a0 e0 90 be
       -0.12730192 -0.120342545 0.17314553 -0.28296375
000140 80 be 2d be e4 d5 de bd 88 52 a0 bb 6c 64 9a 3e
       -0.16967201 -0.1088064 -0.004892651 0.3015474
000150 17 06 0b bd 85 cb 5e be 2b 4c 17 3e 93 6f 5e 3e
       -0.033941355 -0.21757324 0.1477515 0.2172225
000160 0b b0 fa 3d f0 fc 2d be 28 83 21 3d ae 1e 96 3d
       0.12240609 -0.16991019 0.03943172 0.073300704
000170 b5 d8 75 3e 25 8c 6e be 60 df 8d be 82 f1 94 3e
       0.24008448 -0.23295648 -0.27709484 0.29090506
000180 e1 4e f4 3d 49 89 a9 bc 42 f2 0d 3e 15 a3 54 3e
       0.119291075 -0.020695345 0.13861945 0.20765336
000190 69 d9 05 3e 1f e8 03 3e 3e 29 02 be ca 75 c6 3d
       0.13071217 0.12881516 -0.12711045 0.09690435
0001a0 f1 8a ae 3d 2c 81 7b bd 86 c4 90 be b9 34 8b bd
       0.08522595 -0.061402485 -0.28274935 -0.067971654
0001b0 51 9e 96 3d 53 ab a9 bd b5 4b fd 3c 51 6c ed bd
       0.07354415 -0.082846306 0.030919889 -0.11592925
0001c0 f7 3d 71 3e 15 b9 5c be 01 21 f2 bb 5c b0 15 be
       0.23558794 -0.21554978 -0.0073891883 -0.14618057
0001d0 51 c3 5c 3e c2 10 4b be b2 44 7c be f3 01 b9 3d
       0.21558882 -0.19830611 -0.2463558 0.09033575
0001e0 43 d5 3a be 69 98 ed bc f2 06 54 3e 54 79 6d 3e
       -0.18245415 -0.029003339 0.20705774 0.23190814
0001f0 5b 1a 8b be aa 3a 82 3e 07 4c 63 3e 06 ee 0a be
       -0.27168545 0.25435382 0.22196971 -0.13567361
000200 de ec 80 be d1 c0 5f bc 80 ed 74 3e 59 e4 2b be
       -0.25180715 -0.013656811 0.23918724 -0.16786326
000210 81 5b ff 3d 67 5a 11 be 4b 5b 9d 3d e7 57 40 3e
       0.12468625 -0.14194642 0.076834284 0.18783532
000220 ca 3f 94 be cf 1e 8e be 11 88 7a be 8d ac 7e 3e
       -0.28954917 -0.2775788 -0.24465968 0.2487051
000230 ef 7a 88 3e d2 ee b6 bc aa 95 2e bd c3 21 8a 3e
       0.2665629 -0.022330675 -0.0426232 0.26978883
000240 de 8e cc 3d 87 ac 5a 3e d4 fd 92 3e f2 09 76 bd
       0.09988187 0.21354876 0.2870928 -0.06006808
000250 12 29 91 bb cf 9a f9 bd 45 44 16 be 47 f1 e2 bd
       -0.004429945 -0.121877305 -0.1467448 -0.11081176
000260 9c fa 54 3c 86 ae fb 3d 2a 03 35 bd 8d 52 72 3e
       0.012999203 0.12289147 -0.04419247 0.23664303
000270 08 1b b0 bc cc b4 80 be f8 99 2e be c0 89 c7 3d
       -0.021497265 -0.25137937 -0.17050922 0.097430706
000280 54 73 97 3e 0c 8d 98 bd 99 ac 2d 3e b7 91 20 be
       0.29580176 -0.074487776 0.16960372 -0.15680586
000290 30 b8 80 3d ab b9 13 3e ce 35 95 be a9 d0 ec bd
       0.06285131 0.14426295 -0.29142612 -0.11563236
0002a0 5a c6 36 be a5 23 c9 3d 23 09 6f 3c d0 46 0d 3d
       -0.17849103 0.09821252 0.014589581 0.03449136
0002b0 c7 04 4a bd 9c f4 05 be 17 ac 28 bb 40 6b e8 3d
       -0.049320962 -0.13081592 -0.002573734 0.11348581
0002c0 b2 e0 da bc e0 db f5 3d 60 78 0d be 78 ca 3d 3d
       -0.026718471 0.120048285 -0.1381545 0.046335667
0002d0 8d d3 28 3d 43 f3 25 3d 5e 7b bb 3d f5 6a de bd
       0.041217376 0.040515196 0.0915439 -0.10860244
0002e0 7a e6 80 3e c0 e2 68 be b0 dc 3e 3e 9e 33 e5 bb
       0.2517584 -0.22742748 0.18638873 -0.0069946786
0002f0 8d 11 41 be 07 17 52 be b7 0f 45 3e 50 16 e4 bd
       -0.18854351 -0.20516597 0.19244276 -0.11137068
000300 4d 53 0f be 20 ad 11 3e d7 84 67 3d ac 7b be bb
       -0.1399662 0.14226198 0.05652317 -0.0058130827
000310 c4 97 82 be 41 dd 46 3e bb 1e 3d 3e b0 74 98 be
       -0.25506413 0.19420339 0.18468754 -0.29776525
000320 ff 8c dc 3d d3 34 95 be dd 9f 4f be fc db 1f 3d
       0.1076908 -0.29141864 -0.20275827 0.039028153
000330 a3 88 d9 bd 13 54 3e be 86 37 30 bc a1 2c 7a 3b
       -0.106217645 -0.1858676 -0.010755425 0.0038173574
000340 d3 30 21 be 56 95 28 be 14 fc 66 be 7b bd 8d be
       -0.15741281 -0.16463217 -0.22557098 -0.27683625
000350 b1 12 d1 3b 03 c4 46 bd c8 bd da 3d af b9 51 be
       0.006380402 -0.048526775 0.10680729 -0.20480989
000360 15 24 99 3e 09 88 85 3d 7b a8 90 3c 31 38 67 3e
       0.2991034 0.06520087 0.017658463 0.22580029
000370 39 97 04 be 72 02 92 3e 41 8a cd bd 60 bb 03 be
       -0.12948312 0.2851749 -0.100361355 -0.12864447
000380 7f f8 85 be b1 c9 64 be f1 88 09 3e ec 24 67 3d
       -0.2616615 -0.22342564 0.13431145 0.056431696
000390 e4 c9 06 3e 9c ab a7 bc 08 13 be 3c 80 3f 0e be
       0.13162953 -0.020467572 0.023202434 -0.13891411
0003a0 01 7b 8e be d6 f9 59 be bc 0c 4b 3d f0 a1 66 be
       -0.2782822 -0.21286711 0.04957269 -0.22522712
0003b0 02 c4 64 3e 7f 30 01 3d 80 da d5 bd ff a9 be 3d
       0.22340396 0.03154039 -0.10442066 0.09309768
0003c0 a0 61 98 3e f5 4f b7 bd ac 27 8e be 21 3d 8c be
       0.29761982 -0.089507975 -0.27764642 -0.27390388
0003d0 7a af b3 3c 65 4f de 3c ed bf 7b 3a da 0f 5b 3e
       0.02193426 0.027137468 0.00096034893 0.21392766
0003e0 18 d8 0a 3e e0 a3 e2 bd 0e ef 19 3e b7 e4 72 3e
       0.13558996 -0.11066413 0.15032598 0.2372006
0003f0 cc b8 2b be 67 27 b3 bd f2 c1 e0 3d 6e 91 00 be
       -0.16769713 -0.0874775 0.10974492 -0.12555477

linear1.bias f4 [256]
000000 0e 2c 45 be 2f ab 7a 3e ef d3 8c 3e 1f ab 96 3e
       -0.19255087 0.24479364 0.27505443 0.2942743
000010 a8 ff 9e 3d b7 67 b4 3d 35 8b 07 3e 30 7c ee bd
       0.07763606 0.088088445 0.13236697 -0.11644781
000020 15 7f 86 3b d3 b4 8f 3d d5 b8 42 be 53 85 87 3e
       0.004104505 0.07016911 -0.1901582 0.26468906
000030 b5 ca 9e 3c a7 ec 39 be 60 8c ed bc 0f 4c 3d 3e
       0.019383768 -0.18156682 -0.0289976 0.18486045
000040 1e 79 cf bd 7a 12 2b be 8c f5 16 be 7a 24 d3 bd
       -0.10130523 -0.16706267 -0.14742106 -0.10309692
000050 3a f0 90 be ad b1 15 3d 53 d5 16 3e 07 b1 b0 bd
       -0.28308278 0.036546398 0.14729814 -0.08627515
000060 a0 69 6f 3e 72 83 7e 3d 27 9e 2f 3e 48 b3 95 bd
       0.23380136 0.062137075 0.17150174 -0.07309586
000070 30 9a 22 3e 8d 69 25 3e 3c 89 84 bd c0 f2 86 3e
       0.1587913 0.16153546 -0.06471488 0.2635708
000080 ef 57 59 be 23 12 c2 bc b3 49 4e 3d 23 cd 38 3e
       -0.2122495 -0.023690289 0.050363254 0.18047003
000090 3f 8e 3e 3e 18 2e f8 bd 18 59 da bd b8 4f 6e be
       0.1860895 -0.12118167 -0.106615245 -0.23272598
0000a0 65 d5 b5 bd d1 eb 61 bc ac 34 f2 3d 41 9f 7e bb
       -0.088785924 -0.013789133 0.118264526 -0.0038852247
0000b0 11 6d b1 bc 10 b6 ec 3b c4 1f 0f be 77 87 1e 3c
       -0.021658452 0.007223852 -0.13976961 0.009675852
0000c0 42 a0 5e be 7d cf 22 3e 88 80 48 3d 5e 8e 77 3e
       -0.21740821 0.15899463 0.048950702 0.24175403
0000d0 63 08 4b 3e e7 10 96 3e 31 e7 8b 3e 32 3f 8d be
       0.19827418 0.2930977 0.27324823 -0.27587277
0000e0 5a 41 1f be 71 4f da bd 17 67 5d 3e 80 8c ca 3d
       -0.15552273 -0.106596835 0.21621357 0.098900795
0000f0 34 52 1d 3e 43 fe 4b be 9f 15 cf 3d fd c7 14 3b
       0.15363389 -0.19921212 0.10111546 0.002270221
000100 f4 fc 51 bd 82 a5 00 be 50 63 64 be 7b af 16 be
       -0.051266626 -0.12563136 -0.2230351 -0.14715378
000110 e9 dc 96 bd b2 d6 34 3e d0 f9 83 be e7 2e 8c 3d
       -0.07366354 0.17660025 -0.2577653 0.068448834
000120 03 c3 7e bd 9d d8 b1 bd 92 73 6d be dd 9a 04 be
       -0.062197696 -0.08683894 -0.23188618 -0.129497
000130 e6 fb 83 bd 31 d9 80 be 00 75 18 3e 2d ce 5b be
       -0.0644453 -0.25165704 0.14888382 -0.21465369
000140 ea ed 53 be 3b 19 fc bd aa 21 9d 3d e2 b7 56 be
       -0.20696226 -0.123095 0.076724365 -0.20968583
000150 3e 44 01 3e 7a 98 08 3e 5d af 78 bb cd 05 cd 3d
       0.12623689 0.13339415 -0.0037946322 0.10010872
000160 93 f2 8a be 18 96 85 be 37 9d 31 be 64 60 8b 3d
       -0.27138194 -0.26091075 -0.17345129 0.068054944
000170 14 a1 7b be e0 b3 e1 3d 26 69 9c be 9f 49 54 3e
       -0.24573165 0.110206366 -0.30548972 0.20731209
000180 bf 3b 49 be 6b 5a 86 be 00 7f 82 3e 6b c5 15 be
       -0.19651698 -0.26240858 0.25487518 -0.1462609
000190 56 cb 8b 3e 43 c8 e6 3d d8 68 e3 3d 0e b8 5a 3e
       0.2730357 0.11268666 0.11103982 0.21359274
0001a0 8a 7c 9e bd e8 50 59 3e b4 89 29 3e 20 13 93 3e
       -0.07738598 0.2122227 0.16556436 0.2872553
0001b0 3c f9 8d 3e b9 9c 87 be 47 ee 80 3e cd 54 fa 3d
       0.27729213 -0.26486757 0.2518179 0.12223206
0001c0 2f f9 47 be d0 ec 38 3e 16 60 7a 3e ab f8 1f 3e
       -0.1952865 0.18059087 0.24450716 0.15622203
0001d0 71 da 8c be 4e 87 96 be f7 01 1b be 8b d7 cf 3c
       -0.27510408 -0.29400104 -0.15137468 0.025371334
0001e0 c3 df 97 3e f0 eb 5f 3d 7c 9c ea 3d 2c 95 a0 3e
       0.29662904 0.054668367 0.11455628 0.3136381
0001f0 49 3a 5f 3c cb 1b 73 be 07 7b 3b bd 2e f5 85 3e
       0.013624736 -0.23741071 -0.045771625 0.2616362
000200 ae dd 97 be 27 38 de bc 9b 04 78 be 7a 7a f9 3d
       -0.29661316 -0.027126385 -0.24220507 0.12181564
000210 2a eb 94 3e 2c ec 9b 3e f7 9c 2f 3e 36 d4 d3 bd
       0.29085666 0.30453622 0.17149721 -0.103432104
000220 a1 f0 a8 3b ee 81 16 3e d7 d6 06 3e 2f bf c8 bd
       0.0051556383 0.14698002 0.13167892 -0.098020904
000230 e6 0d 8f be c0 0f cf 3d 9b f6 3b 3e 00 e0 d2 3d
       -0.2794029 0.10110426 0.18355791 0.10296631
000240 35 1f 8f be 10 b1 33 3d 36 1f 0c bc b5 a3 c5 3d
       -0.27953497 0.04387003 -0.008552363 0.09650365
000250 d6 b2 a5 3d 9c 1d 14 be 99 0d 23 3d a8 24 6e 3c
       0.08090751 -0.1446442 0.03980789 0.014535107
000260 0c f5 04 3e 2d 15 7d 3e 1d dd 7a 3e ff 87 01 be
       0.12984103 0.24715109 0.2449841 -0.12649535
000270 e1 1f 99 3e cf 5e c6 3d cf 0d ec 3d 9a 70 85 3e
       0.29907134 0.09686052 0.11526071 0.2606247
000280 d1 ca a5 3c 63 ca e9 bd f8 3f e6 bb 6e ce af bd
       0.020238312 -0.11415555 -0.0070266686 -0.08584295
000290 31 d7 e7 bd ef b0 4e be 66 9e e7 3d 3b ac 84 3e
       -0.113203414 -0.20184682 0.11309509 0.2591265
0002a0 a4 fe 97 3e 7e 0d f0 bd e9 b6 9c bc ea 6d 8b bd
       0.29686463 -0.117213234 -0.019130187 -0.06808074
0002b0 89 9f 77 3c d9 e1 8c be 4f 37 76 be 2c 61 df bd
       0.01511372 -0.27516058 -0.24044536 -0.10907206
0002c0 05 cd 90 be 24 d2 9f bd 2e d0 dd bd b5 88 cc 3d
       -0.28281417 -0.07803753 -0.10830723 0.09987012
0002d0 84 0e 8f be bc 18 74 be be 8f 21 3e a0 40 f0 3c
       -0.27940762 -0.2383756 0.1577749 0.02932769
0002e0 5c 20 e4 3d 3a 27 a2 3d 18 d4 fd 3b 06 61 03 be
       0.111389846 0.07917638 0.007746231 -0.1282998
0002f0 a0 c0 ad 3d ae c0 52 be 28 de 15 3c 8a aa 2c 3e
       0.08484006 -0.20581314 0.009147204 0.1686193
000300 c9 05 c8 bd 94 05 db 3d e1 94 30 be 65 78 8d 3e
       -0.097667284 0.10694423 -0.17244293 0.27630916
000310 e9 3c 6f 3e e6 43 5a 3e 4c 45 2a be d4 ef 74 be
       0.23363079 0.21314964 -0.16627997 -0.23919612
000320 16 21 45 bc 92 40 17 be 57 1d 5e 3e a7 f4 8c be
       -0.012031814 -0.14770725 0.2169088 -0.27530405
000330 c5 69 14 be 32 91 16 be ad 56 3f be 7d ae 78 bd
       -0.14493473 -0.14703825 -0.18685408 -0.06071328
000340 fb b9 55 be e7 c7 44 3e 43 4b 40 3e 45 8c 9a 3e
       -0.20871727 0.19216882 0.1877871 0.30185142
000350 16 dd 8d be 83 6c 2a 3e 5e f7 8a 3e 1f ac 5e 3e
       -0.27707738 0.16642956 0.2714185 0.21745346
000360 55 85 03 be 4a 4b 30 bd 79 67 47 3e 30 98 61 be
       -0.12843831 -0.04304055 0.19473065 -0.22030711
000370 54 6d 6f be 89 a4 d6 3d 01 d2 8c bd 40 3c 8b be
       -0.23381549 0.10480601 -0.068759926 -0.27194405
000380 de 1a 6e 3e 6d 07 55 3e e4 0d 16 be ff 27 7f bd
       0.23252437 0.20803614 -0.14653736 -0.062294003
000390 3a be 0d be cf 8f 16 be 1b 89 b2 bd aa 41 0d 3e
       -0.13842097 -0.14703296 -0.08717557 0.1379458
0003a0 d4 87 a4 bd f4 f1 b5 bd d1 ed 24 3d e5 e9 ec bd
       -0.0803372 -0.088840395 0.040265862 -0.11568049
0003b0 1d 4a 27 be 21 56 6c 3e 54 72 d5 3d 47 19 ef 3d
       -0.16336866 0.2307973 0.10422197 0.11674743
0003c0 d1 81 86 3e 78 ae 45 3d be 43 48 be 8b 7b 96 be
       0.26270917 0.04826209 -0.19557092 -0.2939113
0003d0 db a8 44 be 3a 63 f0 3d 4b 0c 36 3b 63 8e 53 be
       -0.19205038 0.11737676 0.0027778323 -0.20659785
0003e0 95 5c 98 be aa ef 65 3e 95 0c 8b 3d 07 de 8c 3e
       -0.29758134 0.22454706 0.06789509 0.27513143
0003f0 0b f9 63 be a5 4e 62 3e 4a 86 e4 3d f2 78 58 3e
       -0.22262971 0.22100313 0.11158426 0.21139887

linear2.weight f4 [3, 256]
000000 e4 23 14 bd db fc 38 bd 45 69 45 3d 79 37 0a bd
       -0.03616704 -0.045163017 0.048196096 -0.03374431
000010 16 a3 0f bd ee 45 b9 3c c7 42 1b 3d 3d 25 93 3d
       -0.03506764 0.022616353 0.03790548 0.07184837
000020 af c6 76 bd aa aa ee bc aa 66 34 3d 80 a0 e2 3c
       -0.060248073 -0.029134113 0.04404322 0.027664423
000030 d8 61 0e bd 33 ec 63 bd a9 d1 01 3d eb c3 2d bd
       -0.03476128 -0.05564518 0.031694088 -0.04242317
000040 14 73 ac bc 38 e4 9a 3c 5e 89 7e 3d 1d 9e 22 3d
       -0.021050967 0.018907651 0.062142722 0.03970157
000050 66 20 2c 3d bf e7 ad bc 50 6b 09 3c 1d 41 b3 3c
       0.042023085 -0.02122867 0.008387402 0.021881634
000060 8b 6a d2 3c 49 61 89 3c 55 ae 14 bc 31 a5 c6 bb
       0.02568557 0.016770022 -0.009074767 -0.006062173
000070 c7 0d d3 3c d8 8b 74 bd 28 6b 98 bb c6 ca a9 bc
       0.025763405 -0.059703678 -0.004651446 -0.020726573
000080 58 e4 0d bd 37 f6 f2 bc e8 cf 7f 3d 84 72 6f 3d
       -0.034641594 -0.02965842 0.062454134 0.05845882
000090 fa 8c 28 bd c7 ca 76 3d 80 05 2f bb aa 9d 76 3d
       -0.04115007 0.060251977 -0.002670616 0.060208954
0000a0 65 a6 88 3a 7c 7d 72 bd 72 a1 2d bc 0b 11 5a bd
       0.0010425566 -0.059201702 -0.010597574 -0.05323891
0000b0 e6 2d 24 3d b0 7c 77 3d 30 bf 15 bd a8 6c 95 b9
       0.040082835 0.060421646 -0.036559284 -0.0002850045
0000c0 47 a9 4b 3c 98 f5 2c 3d f6 a8 74 3c e1 7d 56 3d
       0.012430496 0.042226404 0.014932862 0.05236614
0000d0 8e 11 6f bd a2 a1 96 bd 16 45 dc 3c 00 ea 85 ba
       -0.05836635 -0.07355048 0.026888411 -0.0010216832
0000e0 9a da 41 bd e6 7a e3 3b da 91 36 3b d6 81 07 bd
       -0.047327615 0.006942141 0.002785793 -0.033082806
0000f0 16 8e 21 3d 9f 9f 1e bd a7 6d 52 3c 95 5a 34 3d
       0.039442144 -0.038726445 0.012843526 0.0440317
000100 82 60 00 bd 84 b5 3e 3d bc dc 60 bd c7 b5 07 bd
       -0.031342037 0.046559826 -0.05489801 -0.03313234
000110 b0 ac 48 3c b2 50 2c bd d5 3e 89 3c 0e 5e cc 3b
       0.012248203 -0.042069145 0.016753593 0.006236798
000120 3c c3 e6 bc 59 32 9e 3d 04 0f 8d 3d 21 a5 54 3c
       -0.028169267 0.07724447 0.0688763 0.012978823
000130 b2 74 11 3c 82 f9 49 bd 26 62 42 3d 63 10 3b bd
       0.00887792 -0.049310215 0.047456883 -0.045669924
000140 be 90 50 bd 62 3a 2f bd 15 5c 98 bc f9 f9 91 bb
       -0.050919287 -0.042780288 -0.018598596 -0.004454848
000150 91 37 d5 3c 94 9a 6b 3c 29 e4 44 3d ef ad ef bc
       0.026027473 0.014380116 0.048069153 -0.029257743
000160 4a 8a e3 bc cc 11 da 3c 8c 78 48 3d f2 b9 b8 3d
       -0.027775902 0.026619814 0.048943087 0.09019841
000170 22 a5 71 3d db 98 13 3d b8 7c fe bc 82 09 5b 3c
       0.058995374 0.036034446 -0.03106533 0.013368966
000180 14 32 0d 3d 63 95 54 bd d6 be 85 bc 58 89 39 3b
       0.034471586 -0.05190028 -0.01632635 0.0028310623
000190 42 45 cc 3b 74 74 e9 3c e7 3c 2f bd c6 36 37 bd
       0.006233842 0.028497912 -0.04278269 -0.04472997
0001a0 c0 d4 33 bd 99 e4 eb bc b9 bb 3d 3d f5 17 84 3d
       -0.043904066 -0.028795527 0.046321604 0.06449882
0001b0 ac 55 9c bc a0 9e 42 bc f7 c3 a4 3b 4f 4d 4b bd
       -0.01908382 -0.011878639 0.0050282436 -0.049634274
0001c0 f6 28 4d 3c 63 56 cb ba 09 6b 9f 3c fc 6b 2a bd
       0.012521973 -0.0015513416 0.019460218 -0.04160689
0001d0 1c d5 38 3d f6 0e 79 3c 71 bd 7b bd 32 e3 b6 bc
       0.045125112 0.015201321 -0.061459962 -0.022325132
0001e0 15 c5 e6 bc f5 75 c2 bc a5 30 cd ba c8 46 8b bd
       -0.028170148 -0.023737887 -0.0015654756 -0.0680061
0001f0 56 a3 95 3c 7a 4a c3 bc a8 e2 76 bc e9 96 68 3b
       0.018266361 -0.023839224 -0.0150686875 0.003549034
000200 04 90 63 3c 60 9c 0a bd 49 f1 2e bc db 01 1d bd
       0.0138893165 -0.033840537 -0.010677644 -0.038331848
000210 84 4f 26 3a 8c 34 94 bd 00 f3 56 bb 87 a1 02 3d
       0.0006344246 -0.07236585 -0.0032798648 0.031892326
000220 3d cc c0 bc bf 8d 52 bc f8 cd ef bb 89 fa ac bc
       -0.023534888 -0.012851178 -0.0073182546 -0.021115558
000230 70 56 35 3c 4f 78 fc bb 81 1d 1f 3d ea 75 84 bb
       0.011067972 -0.0077047716 0.038846496 -0.0040423768
000240 03 96 41 3d 33 a2 4d 3d 12 cf 01 3c 5e 46 68 3c
       0.047262203 0.050203513 0.007922905 0.014176933
000250 a6 38 14 3d 71 ec 97 bc c3 6d 70 3d 93 82 32 bd
       0.036186837 -0.018545361 0.058698427 -0.043581557
000260 ad 67 5c 3c 79 d4 54 bd 11 8d 8d bd a5 b1 07 3d
       0.013452453 -0.051960442 -0.06911672 0.0331284
000270 2f 49 39 3d 40 85 86 bd e9 20 a1 3c de e5 3f bc
       0.04523581 -0.06568384 0.019669013 -0.011712519
000280 bd 5f 90 bb 90 69 33 3d 18 61 6e bd ba 07 f6 3c
       -0.004405944 0.043801844 -0.058198065 0.030032981
000290 70 e1 2b 3c 2c ad 6d 3d 73 3d 07 bd fd 1b 9c bc
       0.01049076 0.058026478 -0.033017587 -0.019056315
0002a0 d5 c3 46 3d 61 34 47 bc cf 6f bb 3c 93 9a 66 3d
       0.048526604 -0.012158484 0.022880463 0.056299757
0002b0 69 e6 98 b9 f4 95 c6 3a 0d 65 3a 3c 2d 44 7b bd
       -0.00029163368 0.0015150891 0.011376631 -0.061344314
0002c0 c2 e5 f6 bc fe 68 6c bd 07 25 94 3c da 14 ef bc
       -0.030138854 -0.057717316 0.018084062 -0.029184747
0002d0 dc 12 e9 bb 2b 9d 7c bd 2c 9b 2f 3d 73 6c 3c bd
       -0.007112844 -0.061673325 0.042872593 -0.046001863
0002e0 5b b1 43 3d 2d 2a 94 bd e9 e4 cf 3c 11 29 0e 3d
       0.04777656 -0.07234607 0.025377708 0.034707133
0002f0 c0 07 5d bc a5 71 a5 ba af 43 51 bd 77 84 ce 3c
       -0.013490617 -0.001262237 -0.05108994 0.025209649
000300 b9 49 af 3c c3 4c 55 bc f4 8a 86 bd 62 d4 37 bd
       0.021397458 -0.01301879 -0.06569472 -0.04488028
000310 30 6d a0 3c 2d 81 35 3c ed 32 28 3d 90 3b 30 bb
       0.019583315 0.011078161 0.04106419 -0.002689097
000320 14 98 8c 3c ae b4 d4 bc f7 51 04 bd 78 5b 3c 3d
       0.01716236 -0.025965061 -0.03230473 0.04598567
000330 71 70 93 bd 7e c5 13 3d a4 6d 2c 3d 3e 47 5e 3d
       -0.07199181 0.036077015 0.04209675 0.05426716
000340 47 31 9c 3d ab ad b7 3c c3 6c 4f 3d 7c 32 63 bd
       0.076265864 0.022421679 0.050640833 -0.055468068
000350 da 43 2a 3d 93 51 18 bd 5b 8b 3b bc 0d f4 f1 ba
       0.041568615 -0.03718717 -0.011446799 -0.0018459574
000360 90 c1 5e bd 60 80 b3 bc 34 c0 0f bd 45 c9 19 bd
       -0.054383814 -0.0219118 -0.03509541 -0.03754546
000370 4d 3a 55 3b a6 06 35 bd 73 0d 46 3d d7 3f 54 bc
       0.003253597 -0.044195794 0.04835267 -0.012954674
000380 1e 06 e1 bc b8 df 7d bd a7 f0 94 bc f5 a5 2f 3c
       -0.027468737 -0.061980933 -0.018181158 0.01072072
000390 9c 83 3f bc ee 61 73 3d 52 51 f5 bc 51 09 1b bc
       -0.011689093 0.059419565 -0.029946003 -0.00946267
0003a0 82 39 37 3d f2 c4 fd bc de 4a 8a 3c d0 68 7e bc
       0.044732578 -0.0309777 0.016881403 -0.015527919
0003b0 7f 4e 5f bd c7 27 a3 bc b9 ba 21 bc 43 6f 53 3d
       -0.05451822 -0.019916428 -0.009871178 0.05161978
0003c0 b1 9d 8f bd 5f 99 0e 3c 66 81 d5 3c 90 d6 29 3c
       -0.07012499 0.008703559 0.026062679 0.010366097
0003d0 ee bc a7 bb 8f e3 6d 3c 23 8e 2b 3d 4c 17 8f bc
       -0.0051189577 0.014519586 0.0418836 -0.017467164
0003e0 46 ba 18 3d 02 29 cc bb c4 45 40 bd 6c 36 fd 3c
       0.03728702 -0.0062304744 -0.046941534 0.03090974
0003f0 5f 4e 86 3d e9 25 58 bd ae 1b 80 ba 06 36 91 bd
       0.06557917 -0.05277053 -0.0009773874 -0.07090382

linear2.bias f4 [3]
000000 05 60 08 3d 08 2b 88 bd 7e a1 98 bc
       0.033294696 -0.066488326 -0.018631693
