model/model.pth (torch, 17107 bytes, 4 tensors)

linear1.weight f4 [256, 11]
000000 be d4 0b be 76 4d e6 3e 78 18 1c 3e 8a 56 98 3e
       -0.13655373 0.44980973 0.15243709 0.29753524
000010 9c 31 51 3d 04 5c 04 3b e0 b6 48 bd 82 a9 2f bd
       0.0510727 0.0020196447 -0.04900253 -0.042886265
000020 c7 7a b6 3c 92 7f af bd 14 1f 8a be be 1f b7 3e
       0.022275342 -0.08569254 -0.26976836 0.35766405
000030 7b 1e 01 3e 05 56 c4 3e 2c d4 44 3e 61 4a 06 3e
       0.12609284 0.38346878 0.19221562 0.13114311
000040 b8 c2 49 bc 5b 09 a8 3e 70 82 16 bd 42 de bc bd
       -0.012314491 0.32819638 -0.03674549 -0.0922208
000050 0d 30 9f 3e 9f 43 62 3e 3f 4e 94 be 97 aa 6f be
       0.31091347 0.22096108 -0.28965947 -0.23404919
000060 25 95 86 be 33 86 d8 3d 47 40 ee bd 9e 98 8d 3e
       -0.26285663 0.105724715 -0.11633354 0.276555
000070 de 73 07 be 40 15 70 be 54 1b d8 bd 70 8e ff 3d
       -0.13227794 -0.23445606 -0.105520874 0.1247834
000080 2c 25 b2 3d 30 f5 96 3d 31 4d dc be c7 89 7b 3e
       0.08698496 0.073709846 -0.43027642 0.24564277
000090 5c 01 40 3e 3d fe 1b be 8e 87 56 be 46 c2 a6 3e
       0.18750519 -0.15233703 -0.20950148 0.32570094
0000a0 1a 81 42 be d3 66 8b be e8 0e 05 3e 08 f6 8b be
       -0.18994561 -0.27226886 0.12993968 -0.27336144
0000b0 a4 e5 b4 bd da 5d a8 bc 6a 5c 61 be 5a a9 98 be
       -0.08832863 -0.020552564 -0.2200791 -0.29816705
0000c0 c6 ad a3 bb bd 3a 61 3e 8a 68 fa bd c3 36 00 3d
       -0.0049950806 0.21995063 -0.122269705 0.031302225
0000d0 ec d7 46 be aa d9 06 3e 2e 21 af be c9 f6 ab bc
       -0.19418305 0.1316897 -0.34205002 -0.0209917
0000e0 c0 af a9 3e 7c 31 4d be 46 a2 5e 3e 64 61 43 be
       0.331419 -0.20038408 0.2174159 -0.1908012
0000f0 1b 80 87 be 45 40 cd bd f0 ba b4 be 74 2a e6 3d
       -0.26464924 -0.10022024 -0.35298872 0.11238566
000100 e9 19 a4 bd da 73 50 3e e3 ef b1 bc 4a 66 9b 3d
       -0.080127545 0.20356694 -0.021720832 0.075878695
000110 14 8e 57 3e 46 bf 7e be f2 b4 88 be e9 24 06 3e
       0.21050292 -0.24877653 -0.2670055 0.13100018
000120 73 f1 4b 3e af 29 ac 3d e5 66 0a be 54 54 8a be
       0.19916324 0.08406388 -0.13515814 -0.27017462
000130 17 f7 80 be 28 8d bf 3e 46 7d c7 3d 92 a9 64 be
       -0.25188515 0.3741238 0.09740691 -0.22330311
000140 b4 5c 68 3e 4c 13 ad bc 69 79 85 be 9e aa 9a 3d
       0.22691613 -0.021127366 -0.2606919 0.07552074
000150 a4 54 a0 3d 60 eb 9f bd 65 51 43 3d 46 b3 ad 3e
       0.07828644 -0.07808566 0.047685046 0.33925837
000160 74 5a a7 3e dd 14 c3 3e a2 67 25 be f8 1f 04 3e
       0.32686198 0.38101855 -0.16152814 0.1290282
000170 39 ab 3a 3d 08 08 7a 3d 79 34 2e bd 6c ea b6 bc
       0.045573447 0.061042815 -0.04253051 -0.022328578
000180 be fa f0 bc 82 4c 43 3e 13 9f 30 3e 90 61 1a 3e
       -0.029416438 0.19072154 0.17248182 0.1507628
000190 17 4c a9 3e 64 b8 6d bd 44 71 20 3e 0d 26 2f be
       0.33065864 -0.058037177 0.15668207 -0.17104359
0001a0 78 bf 83 3e 6b 7b ed 3d d3 c8 25 3e 49 93 c5 3e
       0.25732017 0.11595806 0.1618989 0.38588932
0001b0 c0 3a 84 be 78 0e de 3d a8 8c 93 3e c4 d8 e0 bd
       -0.25826073 0.108426034 0.2881825 -0.10978845
0001c0 db d4 89 3b fd 2a 92 3b a8 4a 4f 3e 2e db 89 be
       0.0042062826 0.004460691 0.20243323 -0.26925033
0001d0 9c c1 42 be 0a 94 42 be ab 00 a1 be 56 ef 80 3e
       -0.19019169 -0.19001785 -0.31445822 0.251826
0001e0 d4 8c 37 3e 84 0a 58 be 08 5f 98 be 4e 16 28 be
       0.17924815 -0.21097761 -0.29760003 -0.16414759
0001f0 13 41 93 be c6 c2 81 3e a3 75 71 3d 4e 86 1e be
       -0.28760585 0.25343913 0.058950078 -0.1548092
000200 d8 e5 5c bd 96 7e 84 be 5b 40 16 3e 46 06 82 bd
       -0.053930134 -0.25877827 0.14672987 -0.06348853
000210 b2 22 80 3e 0e 57 19 be ef a0 4d 3e 09 99 ad 3d
       0.2502647 -0.14974615 0.20080923 0.08476455
000220 af 54 00 be 65 cc 69 bd 99 32 b0 be fb d1 0f 3d
       -0.12532304 -0.05707969 -0.34413603 0.035112362
000230 12 5d 8a be 41 87 50 3e cd 09 8d be 5d 14 c8 be
       -0.27024132 0.20364095 -0.2754654 -0.39078036
000240 af ef 22 3e 53 fe a5 3d 7c 36 84 3e 68 53 66 3e
       0.15911745 0.08105149 0.25822818 0.22492754
000250 fb 99 a1 3e b7 e3 11 3e 16 0c 47 be 1c 58 8f be
       0.3156279 0.14247023 -0.19438204 -0.2799691
000260 44 ea 7f be 43 a1 8d bd 9b 09 cb 3e cc c6 a9 be
       -0.24991709 -0.06915524 0.39655766 -0.33159482
000270 b9 58 13 be d6 e5 1b 3e ff a7 a7 3e 92 8b 8e be
       -0.14389314 0.15224394 0.32745358 -0.2784086
000280 36 43 9a 3d f0 f1 ec 3d 68 40 db bd 52 72 83 3e
       0.07532351 0.115695834 -0.10705644 0.25673157
000290 c9 ac 7b 3e a3 0c ae bd 9d cd 17 3e 62 1e 95 bb
       0.24577631 -0.08498504 0.14824529 -0.004550741
0002a0 7e 32 2b 3e 30 18 62 bd b6 f2 18 be 5e e4 99 be
       0.1671848 -0.05519885 -0.14936337 -0.30057043
0002b0 76 c6 7e 3e 42 66 e3 bd d4 8a 83 3d a0 75 a0 be
       0.24880394 -0.111034885 0.06422964 -0.3133974
0002c0 3a 68 45 be fd 9c a1 be 31 17 99 3e 50 6c b1 bd
       -0.1927804 -0.31565085 0.29900506 -0.08663237
0002d0 4c dc d4 be e6 9f 5a 3c 4a 4c 0e be 8e b2 c1 3d
       -0.41574323 0.013343787 -0.1389629 0.09457885
0002e0 fa dc a5 bd f6 3f 8c 3e 9b 32 02 be 8f 79 d3 bc
       -0.080987886 0.27392548 -0.12714617 -0.0258148
0002f0 c3 99 1e 3e 52 00 01 bb 8c 9b 0c bc 7a 93 22 3e
       0.15488343 -0.0019684029 -0.008582007 0.1587657
000300 b4 b4 6e be 9e aa 92 3e 6e bc ee bd 8b 99 6d be
       -0.2331112 0.28645796 -0.11657034 -0.23203103
000310 39 09 e2 bd fb f3 a6 3e cd 64 69 bd 1c 9b be 3e
       -0.11036915 0.32608017 -0.056980897 0.37227714
000320 21 08 9e 3e ad 98 28 3e ad 1b 9e bd 11 a8 76 3e
       0.30865577 0.16464491 -0.077201225 0.2408755
000330 c2 fe 90 3e 57 58 81 3e 6b 16 6e 3e bd 51 a9 3e
       0.28319365 0.2526271 0.2325074 0.33070174
000340 3c 6b cc 3e 9c 65 97 3d 7a fd 74 be 64 98 e5 3e
       0.39925563 0.07392427 -0.23924819 0.44842827
000350 d9 38 6c 3e 23 5a 40 3e b0 e7 91 3e c7 4e 65 bd
       0.2306856 0.18784384 0.28497076 -0.05598333
000360 18 f4 60 be d2 01 76 bd 51 f4 97 3e 45 c7 14 3e
       -0.21968114 -0.06006033 0.29678586 0.1452914
000370 09 fe 6a be c4 87 8a 3d f9 b3 8d be 73 30 f8 bd
       -0.22948469 0.067641765 -0.2767637 -0.12118616
000380 1e c5 26 3d eb 74 d2 bd 89 64 30 be 60 7f da bc
       0.04071533 -0.102762066 -0.17225851 -0.026672065
000390 96 73 b9 bd b0 aa 27 3e 56 fb 8a 3e 4a 18 2b 3e
       -0.090552494 0.16373706 0.2714488 0.16708484
0003a0 45 db 63 be 07 f5 0b be 4b 7a 1a be 07 74 70 3d
       -0.22251613 -0.1366769 -0.15085714 0.058704402
0003b0 7e ac c2 bd 9d 60 94 3e 01 aa 9b be 91 ac 87 bd
       -0.095055565 0.2897996 -0.3040314 -0.06624711
0003c0 36 86 6a be 8c f9 95 be c1 3a bb 3b cd f8 9b be
       -0.2290276 -0.29291952 0.005713791 -0.30463257
0003d0 fa 5c b6 3e 08 5c 30 be 1d d8 3e 3e f7 15 10 3e
       0.3561781 -0.17222607 0.18637128 0.14070879
0003e0 24 9f 96 3e 66 a9 78 be 44 40 a3 bd 1d d4 76 be
       0.2941829 -0.2428337 -0.07971242 -0.24104352
0003f0 07 03 f2 bc 2c 3c b4 3e 93 97 9c be ec 4b d1 3d
       -0.02954246 0.35202157 -0.30584392 0.10219559

linear1.bias f4 [256]
000000 16 13 15 3d d8 75 01 3b c1 20 0d be 4b b8 fb 3c
       0.036395155 0.0019754078 -0.13782026 0.030727526
000010 d6 21 84 3e 45 fb ef 3d fe 32 f4 3c 1f a6 0d 3e
       0.25807065 0.11717848 0.029809471 0.13832901
000020 d8 10 7b 3e 56 6e 23 be 22 03 22 3e ec 44 84 be
       0.24518144 -0.15960059 0.15821508 -0.25833833
000030 05 f8 21 be e3 17 bb 3e 26 9f 33 3e 69 ce db bd
       -0.15817268 0.36541662 0.17541179 -0.10732729
000040 4f 38 41 3e 84 c3 dd bd 0d d4 0b bc 15 65 da 3b
       0.18869136 -0.10828307 -0.008534444 0.006664882
000050 9f 0a a7 be f8 cb 47 be 20 62 13 3d bc 63 18 3e
       -0.3262529 -0.19511402 0.03598225 0.14881796
000060 03 40 77 3e 33 8c 76 be 7d bd a8 3e 66 de 9d 3b
       0.24145512 -0.2407692 0.32957068 0.0048177717
000070 2e b1 96 3e fa 4a 09 3e 48 23 4e 3e 24 e3 a8 bd
       0.29432052 0.13407508 0.20130646 -0.08246449
000080 e5 1f af 3c 14 33 5b bd f4 a8 0d be d5 bc 08 be
       0.021377513 -0.05351551 -0.13833982 -0.13353284
000090 05 32 db 3d b6 72 e2 3d b3 4c 06 be e4 eb 25 be
       0.107029 0.110570356 -0.13115196 -0.16203266
0000a0 fc b4 e9 3d 60 b0 9a 3e c6 88 c0 bd f1 5a b5 3e
       0.11411473 0.30212688 -0.094010875 0.35420945
0000b0 38 44 fa bc 60 d7 fc bd 91 c1 8d 3d f3 74 8d be
       -0.030550107 -0.12345767 0.069216855 -0.27628288
0000c0 f0 95 49 be 2f 4b 33 3e e4 d3 4c be 39 94 8d be
       -0.19686103 0.17509149 -0.20002705 -0.27652147
0000d0 cc ed b1 3d 2b f0 5f 3e a0 19 61 bd a4 0d 83 3e
       0.08687934 0.2186896 -0.05495608 0.25596344
0000e0 af 15 3a be f3 c7 19 be 40 54 9b 3e 5e 2f cf 3d
       -0.18172334 -0.15017681 0.30337715 0.101164564
0000f0 f1 61 45 bd e2 1d cb 3d c8 bb f1 3d 7b 19 1c be
       -0.048189107 0.09917809 0.118033946 -0.15244095
000100 82 02 65 3e 97 28 7a 3e 63 b5 72 3d fe 6e 24 be
       0.22364238 0.24429546 0.059255015 -0.16057965
000110 84 6f 39 be 99 2c f8 3d 64 bb cf 3b a7 23 40 3e
       -0.18108946 0.12117881 0.0063394774 0.187636
000120 f9 cb 89 be 53 06 ab 3e a2 bb 76 3e ca 0d ec 3b
       -0.2691343 0.33403262 0.24095014 0.007203792
000130 b6 8d 3c be db eb 1b be 59 4e 04 3e 77 4d 91 be
       -0.18413433 -0.1522669 0.12920512 -0.28379413
000140 86 0d 0d be d9 6d d0 bd 66 b5 aa 3d b0 fb 25 bd
       -0.1377469 -0.10177202 0.0833538 -0.04052323
000150 2b e3 0d 3e 45 2e 4f be e3 3c 83 be ed 1c d0 3c
       0.13856189 -0.20232494 -0.2563239 0.025404418
000160 09 ed 00 3e a5 87 98 3d 5b cd f6 bd b4 da 29 be
       0.12590422 0.07447747 -0.12050887 -0.16587335
000170 a9 17 a3 3e c4 f5 fb 3d c9 f3 08 be e2 61 81 3e
       0.3185399 0.123027354 -0.13374247 0.2526999
000180 29 e0 93 bd 8e 47 97 3e b8 94 42 be 18 04 88 3e
       -0.072204895 0.2954678 -0.19002044 0.26565623
000190 3c cd 25 3e d9 88 92 be a9 2a ec bd 72 86 6e bd
       0.16191572 -0.2862003 -0.11531574 -0.058233686
0001a0 4d a0 94 bd ad a4 2f 3e c6 34 74 3e 0d e5 d1 3d
       -0.072571374 0.17152663 0.23848256 0.10248766
0001b0 cd 50 f1 3d 27 c2 bd 3d 16 3d 8c bd d5 fe 60 be
       0.1178299 0.09265547 -0.06847589 -0.2197221
0001c0 12 d9 d4 3d b9 e0 5f 3e 05 34 c7 3d 79 84 02 bd
       0.103929654 0.21863069 0.09726719 -0.031864617
0001d0 fa 85 ad bd 62 a8 06 3e 74 6f 79 3d e8 5d 83 3c
       -0.084728196 0.1315017 0.060897306 0.016035989
0001e0 78 ff 49 3e 03 b5 a0 3e 0a db 43 be c9 90 e0 3b
       0.1972636 0.313881 -0.19126526 0.0068531972
0001f0 97 c2 b8 bd 47 77 9e bd 6e 87 2f be 18 ee 30 3e
       -0.0902149 -0.07737594 -0.17141506 0.17278326
000200 3b 1a 3d be b9 ed 0c be 23 ed 20 be 86 58 62 be
       -0.18467037 -0.13762559 -0.1571546 -0.22104082
000210 23 03 b9 3d 2d ec c6 3d 35 95 dd bc 4b 52 f5 3c
       0.090338014 0.09713016 -0.027048687 0.029946467
000220 9f 6e 37 3d 59 c5 28 be e8 79 01 be 86 03 a1 3e
       0.04478323 -0.16481532 -0.1264416 0.31448
000230 22 2a 03 be 74 c7 7c 3e f1 e2 96 3e 13 05 28 3e
       -0.12809041 0.2468546 0.29470018 0.16408186
000240 68 6c 7f 3e 03 70 0f 3e 3d 8b c1 bd 0b 9d 0a bc
       0.24943697 0.14007573 -0.09450386 -0.0084602935
000250 da 18 be 3d ed f2 d8 3d 36 0f 79 3e 0f c8 03 3e
       0.09282084 0.105932094 0.24322209 0.12869285
000260 c6 8e 25 3e 3d 63 a0 3e 02 76 91 bd 5d 10 b4 bd
       0.16167745 0.31325713 -0.07102586 -0.087921835
000270 6b b9 36 3c 8b 76 a7 bd 53 d0 58 3e 4e 4c 63 be
       0.0111526055 -0.08176907 0.2117322 -0.22197077
000280 cc 68 47 3e 2c f5 fd 3c a2 9b 9c bd b7 d6 6f 3e
       0.1947357 0.031000696 -0.07646872 0.23421751
000290 58 bd 0e 3e c3 8e 47 be f4 d1 59 bd 53 92 84 3e
       0.13939416 -0.19488053 -0.053178743 0.25892887
0002a0 fd 05 73 3e f6 c5 59 3e 1f 8c 6c 3e 20 aa 58 3e
       0.23732753 0.21266922 0.23100327 0.21158648
0002b0 50 ea 45 bd ba 41 f6 3d 83 7f 0b 3d e5 dc 95 3e
       -0.04831916 0.12024255 0.03405715 0.29270092
0002c0 1a b7 8b be 3f 29 5f 3e ad 02 56 be 25 82 cb bd
       -0.27288133 0.21793078 -0.20899458 -0.099369325
0002d0 11 d7 71 3e f2 28 df 3d bd 70 aa 3b 5b 75 2d 3e
       0.23617198 0.108964816 0.0052014277 0.16939299
0002e0 51 45 16 3e 22 d4 ba 3e 97 75 19 be fc 6e 0f be
       0.1467488 0.3648997 -0.14986263 -0.14007181
0002f0 58 d2 41 be 42 1e 8f bd ff 8d 81 bc f0 bd 83 3e
       -0.18927896 -0.06988193 -0.01581478 0.25730848
000300 9a 11 09 3e 6a 54 53 bd 71 8d 0b be b8 be 88 3d
       0.1338562 -0.051594175 -0.13628174 0.06677002
000310 0d fd aa 3d 00 42 2e bd 08 5b e7 bd 60 91 89 3d
       0.08349047 -0.04254341 -0.1129666 0.06717181
000320 00 5b 68 be f7 e0 9f 3e d0 f0 6f 3e f9 4e 24 3e
       -0.22690964 0.31226322 0.23431706 0.1604575
000330 f7 22 d9 3d 5a 0d 04 be 76 6c 82 3e 12 2c 57 3e
       0.10602372 -0.12895718 0.25473374 0.21012905
000340 4e dc a0 be b7 be 40 3e fc c4 37 be 69 d9 c9 3c
       -0.3141808 0.18822752 -0.17946237 0.024639802
000350 3b 12 00 be 96 4e 37 3d e8 b2 ee bd d6 40 25 3e
       -0.12506954 0.04475268 -0.116552174 0.16138014
000360 5c c1 14 3e 7e 1e 36 be 05 51 61 3e f9 58 da 3c
       0.14526886 -0.1778507 0.22003563 0.026653754
000370 65 27 a2 bb df 17 24 be 32 39 5b 3d 00 70 3d 3e
       -0.004948544 -0.16024731 0.053521343 0.18499756
000380 c5 64 b4 3c fa 0c 77 be ec 2f 22 3e de ef 58 be
       0.022020707 -0.24126044 0.15838593 -0.21185252
000390 0c 14 92 bd 67 d8 31 3e 77 ff d4 3d c6 2f 0a 3e
       -0.0713273 0.17367707 0.104002886 0.13494787
0003a0 c1 de 90 bd ee f9 d2 bc 04 bd 32 3e 50 0b ab bd
       -0.07073737 -0.025753941 0.17454916 -0.08351767
0003b0 4b 9a 12 be a9 5f 5d be 8b e2 b7 3e bb b0 97 3d
       -0.1431667 -0.21618523 0.35915026 0.074067555
0003c0 36 80 26 be 35 30 4e 3e 6c 2f 35 3e f5 fb 06 be
       -0.16259846 0.20135577 0.17693871 -0.13182051
0003d0 8a 75 32 3e 6c fc 0b 3e 85 ae 54 bd 0e 90 1b 3e
       0.1742765 0.1367051 -0.051924247 0.15191671
0003e0 39 0a 26 3d 67 a9 ba bd cf 11 1f be d9 57 13 bd
       0.040537093 -0.09114342 -0.15534137 -0.03597245
0003f0 ff 2d 99 3e 19 56 8c be 74 61 04 be ac 56 81 bd
       0.29917905 -0.27409437 -0.129278 -0.063153595

linear2.weight f4 [3, 256]
000000 b1 1b 46 3c 8c 99 df bd ed df c8 3d 3f ca 39 be
       0.012091563 -0.109179586 0.098083355 -0.18143557
000010 e8 9c 97 bd 5d 3c 08 be 7b c4 4e be 1e f5 b4 bd
       -0.07402974 -0.13304277 -0.20192139 -0.08835815
000020 c1 87 14 be c6 3a d2 bd a2 82 21 be 07 77 06 bd
       -0.14504911 -0.102651164 -0.15772489 -0.032828357
000030 96 8b 7e bd cc de cd 3d c0 e8 f8 bd 4a 21 8e 3d
       -0.06214484 0.10052261 -0.121537685 0.06939943
000040 68 22 a9 3d d2 79 68 3d b1 49 6b bd d0 31 fc bd
       0.082585156 0.056756802 -0.057443324 -0.123141885
000050 d4 d5 4c 3d 1c e7 fb bc ef 89 87 3d a4 e3 c0 bd
       0.05000861 -0.03074985 0.066181056 -0.09418419
000060 41 68 f2 bc 25 a0 99 3d 21 a7 20 3d b3 4d a2 bc
       -0.029590728 0.07501248 0.039221887 -0.01981244
000070 64 32 74 bc c4 26 f6 3d f0 65 cf 3d 54 78 11 be
       -0.014904592 0.12019113 0.10126865 -0.14206058
000080 ab 0c ca bd 3d a7 01 be 96 72 ff 3d 30 6a 15 3e
       -0.098656975 -0.12661453 0.124730274 0.14591289
000090 a5 58 dd bd b7 9d 9c bc d8 24 f5 bd 94 2f e3 bd
       -0.10807923 -0.019118173 -0.11969918 -0.11093059
0000a0 37 da 15 3e a4 b4 c3 bd a6 20 e6 3d 44 21 ac bc
       0.14634024 -0.09555939 0.11236696 -0.021011956
0000b0 ec 44 68 bc 75 2b 13 be f8 c2 8c bb 53 ad 33 3d
       -0.0141765885 -0.14372046 -0.004295703 0.043866467
0000c0 b5 41 1c be ed 0d e5 3d 68 d4 22 be 19 4a 1f bb
       -0.1525944 0.11184297 -0.15901339 -0.002430564
0000d0 7a ca 28 3a 95 1f bb 3d 97 d4 c8 3d 5b 6f 00 3e
       0.0006438863 0.09136883 0.09806173 0.12542479
0000e0 66 f7 61 be ea fc 87 3d 0b f1 b8 bd c3 1f 0e bd
       -0.22067031 0.066400364 -0.0903035 -0.03469826
0000f0 3e bd 64 bd ac 3d 0a bd aa 80 e6 3c 64 3d 09 3e
       -0.055844538 -0.03375022 0.028137524 0.13402325
000100 10 83 99 bd 02 fe 6b bd 2f 5c e2 bd c4 57 c4 bd
       -0.07495701 -0.057615288 -0.11052739 -0.095870525
000110 bd 71 3b be ba 0d f1 bd e4 fe 8d be fc aa 3d 3d
       -0.18305106 -0.11770196 -0.2773353 0.04630564
000120 06 58 da 3d 9d 3e d5 bd 4a c2 43 bd 61 00 ef bd
       0.106613204 -0.10412333 -0.04779271 -0.11669994
000130 83 cf b0 bc 3f 04 31 3e 97 a9 05 be 67 df dd bd
       -0.021583324 0.17286776 -0.13052975 -0.10833626
000140 89 28 05 bd c0 79 00 3d b6 3b ab 3d d4 10 97 be
       -0.03250936 0.03136611 0.08360998 -0.29505026
000150 4e 2d b6 bd 63 99 b2 bd 00 2b c3 bd 98 87 5c bd
       -0.0889536 -0.087206624 -0.09529686 -0.05384025
000160 ea f0 91 bd bd ec 67 bd 70 3e d2 bd be 62 31 be
       -0.07126029 -0.056622256 -0.10265815 -0.17322823
000170 16 0c 0f 3e db 66 b3 bd 97 70 af 3d 20 f1 e9 bd
       0.13969454 -0.087598525 0.08566397 -0.11422944
000180 df 03 89 3d 35 f9 28 3d ec 7d 52 3b 73 e0 dc bd
       0.066901915 0.041253287 0.0032118512 -0.10784998
000190 1c c5 08 bd 50 0e 17 be 20 f4 d9 bd 75 d2 07 bd
       -0.033391103 -0.14751554 -0.10642266 -0.03315969
0001a0 ae 1e e3 bd 1f be e1 bd fc 1d 86 bc f8 b0 8e 3d
       -0.11089836 -0.11022591 -0.01637172 0.06967348
0001b0 eb de ae bd de 9e c8 3d ef c0 42 be 98 3d 04 3d
       -0.08538612 0.097959265 -0.19018911 0.032285303
0001c0 28 47 f9 3b 1a e0 1b 3d 8d 4f 56 3c 5d 31 5c 3e
       0.0076073594 0.038055517 0.01308049 0.21503206
0001d0 a0 50 f1 bd cd 45 68 bd 3b da a6 3c e2 7b 5c 3d
       -0.11782956 -0.056707192 0.020367732 0.05382908
0001e0 3f af ad 3d 33 83 92 bd 3b 62 10 3e 17 85 ee bc
       0.08480691 -0.071539305 0.14099972 -0.029116197
0001f0 83 62 53 be f5 87 11 3e 3e 13 1b be 0a 30 50 bd
       -0.20643048 0.1421202 -0.15144059 -0.050827064
000200 7b 15 ec 3d ed 42 c2 3d b4 70 9a bd 12 d8 93 3e
       0.115275346 0.09485421 -0.07541028 0.28875786
000210 09 dd 0b be 55 5a 51 bd da 88 5c be aa ad 7e bd
       -0.13658537 -0.051111538 -0.2153658 -0.062177338
000220 30 1a c0 bd 02 ea 08 be 79 66 8e 3c be f5 a7 3c
       -0.09379995 -0.13370517 0.017382847 0.020502921
000230 87 f9 0a bd a8 69 ab bd 29 97 a7 3d fd bf cc 3d
       -0.033929374 -0.08369762 0.081831284 0.09997556
000240 20 a2 2b 3d f7 ef 01 bd 89 f2 0f 3e f7 77 cf 3d
       0.04190266 -0.03172299 0.14057364 0.10130303
000250 87 1d 8d 3d 5f d7 06 3d 61 03 14 be 78 79 b4 3d
       0.068903975 0.032920238 -0.14454414 0.08812231
000260 bc 0a c7 3c 51 f0 0e bd f7 b7 54 bc a3 9a aa 3e
       0.02429711 -0.034897152 -0.012983314 0.33321103
000270 e1 d7 24 be 36 25 5e be ef 1d c6 3a c3 92 34 3d
       -0.16097976 -0.21693882 0.0015115122 0.044085275
000280 95 7f cb ba de e5 9d bd f7 48 35 be 44 d3 8a 3d
       -0.0015525693 -0.07709859 -0.17703615 0.06778577
000290 8e 8d 0f bd 8c ba 53 3b f2 1f 0d be 29 8e d8 3c
       -0.035047106 0.0032307236 -0.13781717 0.026434975
0002a0 e5 45 52 bd e2 e1 56 bb 17 8f 7c bd 5a 26 a0 bc
       -0.051336188 -0.0032788445 -0.0616599 -0.019549537
0002b0 8e 19 49 be 88 6b b9 bd 5c 7e 47 3d 8c 09 bc 3d
       -0.19638655 -0.09053713 0.04870449 0.091815084
0002c0 e0 df 3f 3c ab 96 cd bd a5 b2 85 bd 16 45 a9 bd
       0.011711091 -0.10038503 -0.06528214 -0.0826513
0002d0 ef b9 d7 bd aa 84 c6 bd b0 5b 71 3d 9a 6d 70 bd
       -0.10533511 -0.096932724 0.05892533 -0.058698274
0002e0 a0 08 02 3e 75 26 8f bd 77 3a 1f be a8 a7 1c be
       0.12698603 -0.06989757 -0.15549646 -0.15298331
0002f0 7e 48 04 3e bd fd 9d 3d be ab 47 3b b7 ff de bd
       0.12918279 0.07714412 0.0030467357 -0.108886175
000300 c4 d7 a5 3b 63 55 87 bd 01 c4 d3 bd d2 35 1c 3d
       0.0050611217 -0.06608083 -0.10340119 0.038137265
000310 49 ac 49 be a2 15 28 3e 24 af de bd 25 cd 00 be
       -0.19694628 0.16414502 -0.10873249 -0.12578256
000320 ab e9 ea 3c 7c 15 6e 3d d5 fd 2f bd f4 d7 65 3c
       0.028675875 0.058125958 -0.042966682 0.014028538
000330 b8 6f e2 bd b6 2f d4 3d ec be 02 3e f6 11 0b 3d
       -0.11056465 0.10360663 0.12768143 0.033952676
000340 32 06 94 bc 3b ae e5 bd a5 3b 32 3d 31 40 96 bb
       -0.01806936 -0.112148724 0.043513913 -0.004585289
000350 58 d9 4d 3c 25 31 cd bd 3f 82 0e be 7a 03 44 bd
       0.012564026 -0.10019139 -0.13916872 -0.047854878
000360 91 03 9c 3c 9c 82 49 bd 72 3f 75 bd ec 19 aa 3c
       0.01904467 -0.049196824 -0.05987496 0.020764314
000370 3b 2a e0 3c 42 e8 c3 bd 41 41 29 be d2 8a 56 bc
       0.027363887 -0.09565784 -0.16528799 -0.013094621
000380 06 df b6 bd aa 26 d4 bd 97 b6 66 3e 54 8c 2b 3e
       -0.08929257 -0.10358937 0.2253059 0.1675275
000390 2a bf b0 3c 7d c6 05 be 7f 20 a6 bd 09 a0 c2 bd
       0.02157553 -0.13063999 -0.08111667 -0.095031805
0003a0 2a ab c5 3d 61 ee a6 be a5 0c 1c 3d cf b3 9e bc
       0.096517876 -0.32603744 0.038097996 -0.019372849
0003b0 3b df 92 3d dd e2 8b 3b df 70 c8 bd 98 d9 2a 3b
       0.07171484 0.0042689876 -0.097871535 0.0026069637
0003c0 ec b5 08 bd 09 87 f0 bd e9 3f 0f 3e 5e eb 57 be
       -0.03337662 -0.11744506 0.13989224 -0.21085879
0003d0 63 c1 db bd 20 08 2c bd 8e 77 7b bc d3 5e c2 bd
       -0.10730245 -0.041999936 -0.015348328 -0.094907425
0003e0 05 ff 70 be 6f db ce bd 1f 5c 62 bc 98 a3 8f 3d
       -0.23534782 -0.101004474 -0.013815909 0.07013625
0003f0 d7 8c 04 be 3e 60 38 bd 91 1c 0d be c7 f5 97 3d
       -0.12944351 -0.04501366 -0.13780428 0.07419925

linear2.bias f4 [3]
000000 c2 b5 98 bd 69 4c 30 bd 21 7d 02 be
       -0.074565426 -0.04304162 -0.12743045
