model/model.pth (torch, 17107 bytes, 4 tensors)

linear1.weight f4 [256, 11]
0	0xbc8d913d	-0.01728117
1	0xbe29269f	-0.16518639
2	0x3dbc263b	0.091869794
3	0x3e8f2946	0.27961177
4	0x3dd645ae	0.10462509
5	0x3e6a703f	0.22894381
6	0x3d3ad894	0.0456167
7	0x3e10e24f	0.1414883
8	0x3dcb52c3	0.09927895
9	0x3dd8b563	0.10581472
10	0x3ebc292e	0.36750168
11	0xbe13c049	-0.1442882
12	0xbd9dddc8	-0.07708317
13	0x3dda0a2c	0.106464714
14	0xbce4b600	-0.027918816
15	0xbc17767f	-0.00924456
16	0x3e9db767	0.30803987
17	0xbe1dce7d	-0.154108
18	0xbe84267c	-0.2581061
19	0x3e1da467	0.15394746
20	0x3d16bca8	0.03680101
21	0x3da0df17	0.07855051
22	0x3e86cfd2	0.2633043
23	0xbbb2736c	-0.0054458883
24	0xbe1b95b3	-0.15193824
25	0xbe39a7a0	-0.1813035
26	0x3e0dcfaa	0.13848749
27	0x3e8ad138	0.27112746
28	0xbe5f76ef	-0.21822713
29	0xbe8f15fc	-0.2794646
30	0x3da33159	0.07968397
31	0xbe33aae3	-0.17545657
32	0x3d046721	0.032324914
33	0x3eb5b0ac	0.35486352
34	0xbda23f2a	-0.07922204
35	0x3cbae5de	0.022814687
36	0x3e28381e	0.16427657
37	0xbdee3f5c	-0.116331786
38	0x3e17a193	0.1480773
39	0x3ea2b32e	0.31777328
40	0xbe25fbdf	-0.16209362
41	0x3d2c1d70	0.04202026
42	0x3b92a9d7	0.004475813
43	0xbd0681ff	-0.032838818
44	0x3ebb7728	0.36614347
45	0x3e5046d9	0.20339526
46	0xbe933426	-0.28750724
47	0x3cf64c10	0.030065566
48	0x3e543126	0.20721874
49	0xbce69711	-0.028148206
50	0x3e213864	0.15744168
51	0x3e6fbf88	0.23412907
52	0x3e911be4	0.2834159
53	0x3bf3feaa	0.00744613
54	0xbd4ff578	-0.050771207
55	0xbe4b0d15	-0.19829209
56	0xbe1d5eea	-0.15368238
57	0xbe51b151	-0.20477797
58	0x3c8dad97	0.017294688
59	0x3daaece3	0.08345964
60	0xbc2351e9	-0.009968259
61	0x3e35627d	0.17713352
62	0xbe69385e	-0.22775409
63	0xbe395ca3	-0.18101744
64	0xbdd327b2	-0.10310306
65	0x3e5505a1	0.20802929
66	0xbe85bb86	-0.26119632
67	0x3da24114	0.07922569
68	0x3e92fb4f	0.28707358
69	0xbda3a655	-0.0799071
70	0xbe5afc2b	-0.21385257
71	0x3e2f032c	0.17091054
72	0x3dc91b6e	0.09819685
73	0xbde72f19	-0.1128828
74	0x3e545a2f	0.20737527
75	0xbe84eb6f	-0.25960872
76	0x3e123ec1	0.14281751
77	0xbe0e8c6c	-0.13920754
78	0xbe5d6306	-0.21619806
79	0x3e6b8bd1	0.23002554
80	0xbdf5982d	-0.11991916
81	0x3cf83aa8	0.030301407
82	0xbdeeef8d	-0.116667844
83	0x3e7418ed	0.23837633
84	0xbe96e5ce	-0.29472202
85	0xbc918c45	-0.017767081
86	0xbcbf8a28	-0.023381308
87	0xbc1ce7de	-0.009576766
88	0xbe10a4d5	-0.14125378
89	0xbdc4772c	-0.09593043
90	0x3e6680bb	0.22510044
91	0x3cbf4567	0.023348523
92	0xbc508b1f	-0.012728482
93	0xbd8287e3	-0.063735746
94	0x3dd79bd6	0.1052777
95	0x3e5c211b	0.21497004
96	0x3d6babc2	0.057536848
97	0x3cb6ffda	0.022338796
98	0xbda816c1	-0.08207465
99	0x3e02460f	0.12722038
100	0x3eaf7d8f	0.3427548
101	0xbe4b109a	-0.19830552
102	0x3de1b17b	0.1102018
103	0x3e8f3212	0.27967888
104	0x3e60ab63	0.21940379
105	0xbd743b1c	-0.059626684
106	0x3c6c2988	0.014414199
107	0xbd6a126c	-0.057146475
108	0xbdb15599	-0.086589046
109	0xbe80abd9	-0.2513111
110	0xbe5a6b49	-0.21329989
111	0xbdf23750	-0.11826956
112	0x3e85c553	0.2612711
113	0xbb1555f0	-0.0022786818
114	0x3e2a1fc9	0.16613688
115	0x3e591e83	0.21203046
116	0xbe87e3cc	-0.26540983
117	0x3e29b6f6	0.165737
118	0xbe86029a	-0.2617386
119	0xbdb99031	-0.090607055
120	0x3e2171e7	0.15766107
121	0x3e1ae349	0.15125765
122	0xbe2020de	-0.15637538
123	0x3e9447db	0.2896107
124	0x3e792a00	0.24332428
125	0x3e8b291f	0.2717981
126	0x3e2d95fa	0.16951743
127	0x3e43d0eb	0.19122665
128	0xbe3fdbda	-0.1873621
129	0x3e6aaf31	0.22918393
130	0x3e9db0ab	0.3079885
131	0xbe13902f	-0.1441047
132	0xbe6c4f51	-0.23077132
133	0xbd87b56a	-0.06626399
134	0xbe97a501	-0.29618075
135	0x3db3bee2	0.087766424
136	0x3e1655c2	0.14681152
137	0xbe6cf34b	-0.23139684
138	0x3db96b55	0.09053675
139	0xbe85ccc0	-0.26132774
140	0x3e7b8d2a	0.24565569
141	0x3b5568e4	0.003256374
142	0xbe9dab93	-0.30794963
143	0x3eb8798c	0.36030233
144	0x3eb88e69	0.3604615
145	0x3e3fb2e8	0.18720591
146	0xbe5e069f	-0.21682213
147	0xbdcde1f6	-0.10052864
148	0x3e57fc1e	0.21092269
149	0xbd0fb2ca	-0.035082616
150	0x3e88acd6	0.26694363
151	0x3db89893	0.09013476
152	0xbd7f7cdf	-0.062374946
153	0x3e8d4f67	0.27599642
154	0x3d60152d	0.054707695
155	0xbe82af71	-0.25524476
156	0xbded9b4b	-0.116018854
157	0xbd6cbaf2	-0.057795472
158	0x3e62e45d	0.22157426
159	0x3d8611cf	0.065463655
160	0x3d751889	0.05983785
161	0x3c58129f	0.013188033
162	0x3dcd91bf	0.100375645
163	0x3e3f8e95	0.18706734
164	0x3e832fa7	0.25622293
165	0xbe2d14ca	-0.16902462
166	0x3e01a17d	0.12659259
167	0x3d846674	0.06464854
168	0x3ea8f311	0.32997945
169	0x3e62e0ae	0.22156021
170	0x3dff63d6	0.12470214
171	0x3dd91eee	0.106016025
172	0x3d9ee485	0.077584304
173	0xbe15a7b8	-0.14614761
174	0xbdd84f5e	-0.10562013
175	0x3e8d0d46	0.2754919
176	0x3db36f29	0.087614365
177	0x3ec0c13f	0.37647435
178	0x3e21d330	0.15803218
179	0x3defa97d	0.11702249
180	0x3ea12b1c	0.31478202
181	0x3df4dd5b	0.11956283
182	0x3d0497b7	0.03237125
183	0x3d49d773	0.049277734
184	0x3eab724e	0.33485645
185	0xbd672f2e	-0.05644148
186	0xbb0019e7	-0.001954669
187	0x3bade597	0.0053069103
188	0x3e827c33	0.2548538
189	0x3e5b93fe	0.21443173
190	0x3d550f7e	0.052016728
191	0xbd469279	-0.04847953
192	0x3eaf750e	0.34268993
193	0x3e2e1d20	0.17003298
194	0x3e92321c	0.28553855
195	0xbd5bcfeb	-0.053665083
196	0x3d837daa	0.06420453
197	0x3e0bd535	0.13655551
198	0x3db58103	0.08862498
199	0xbe40f776	-0.18844399
200	0x3d938f57	0.07205074
201	0x3e0cfb0e	0.13767645
202	0x3dc298ba	0.095017865
203	0x3e9e5d14	0.30930388
204	0x3bf2c800	0.0074090958
205	0x3e32e10d	0.17468663
206	0x3db2e835	0.08735696
207	0x3e47560c	0.19466418
208	0x3e994b46	0.29940242
209	0x3e36d1ac	0.17853421
210	0x3e013ffd	0.12622066
211	0x3e4a0cd5	0.19731458
212	0x3db9935f	0.09061312
213	0x3b5a0189	0.0033265075
214	0x3e951d33	0.2912384
215	0x3e0e5a8b	0.13901727
216	0xbdd99564	-0.10624197
217	0x3e46d920	0.19418764
218	0x3e6aeaad	0.22941084
219	0x3e935e8a	0.28783065
220	0x3e245c0e	0.16050741
221	0xbdb7c351	-0.089728005
222	0x3e7ff598	0.2499603
223	0xbe1cab6a	-0.15299764
224	0xbe615328	-0.22004378
225	0xbe7dae1e	-0.24773452
226	0xbe816a2f	-0.25276324
227	0x3e8bf479	0.27334955
228	0x3e877f56	0.26464337
229	0xbe97dd0a	-0.29660827
230	0x3db61d93	0.088923596
231	0xbc901af8	-0.017590985
232	0x3e01f0c5	0.12689503
233	0x3e0c612b	0.13708942
234	0x3e842bbf	0.25814626
235	0xbce2d63d	-0.027690047
236	0xbe9d8697	-0.30766746
237	0x3c1a2a73	0.009409535
238	0xbe02e668	-0.12783206
239	0x3e595d5b	0.21227019
240	0xbde589db	-0.112079345
241	0x3e840abc	0.2578944
242	0xbd229feb	-0.03970329
243	0x3e932554	0.28739417
244	0x3e849515	0.2589499
245	0x3e028e60	0.12749624
246	0x3e0c626d	0.13709421
247	0xbda05705	-0.07829098
248	0x3e3af769	0.18258442
249	0x3965a7e0	0.0002190168
250	0x3dd6ddb9	0.10491509
251	0x3e891506	0.26773852
252	0xbd33b626	-0.043874882
253	0xbdd07d72	-0.10180177
254	0xbe06d93b	-0.13168804
255	0x3e92e2f7	0.28688785

linear1.bias f4 [256]
0	0x3e0ab5d9	0.13545932
1	0x3d396180	0.045259
2	0x3d30663b	0.043066245
3	0x3da4d268	0.08047944
4	0x3de9685a	0.113968566
5	0x3e8b1c04	0.27169812
6	0xbe9a720d	-0.3016514
7	0xbe153814	-0.14572173
8	0x3ec17ee6	0.37792128
9	0x3e4d72bd	0.200633
10	0xbdbd7ab5	-0.0925192
11	0x3eb9ab53	0.36263523
12	0xbdc1e632	-0.094677344
13	0x3eb71f9b	0.357663
14	0x3d7773e3	0.060413253
15	0x3e3ec146	0.18628415
16	0xbe1ba26f	-0.15198682
17	0x3dc55259	0.09634847
18	0x3e97a5b5	0.29618612
19	0xbd7d71dd	-0.061876167
20	0xbe4a6965	-0.19766767
21	0x3e5c9eeb	0.21544997
22	0xbe584389	-0.21119513
23	0xbe37ff3d	-0.1796846
24	0x3dc4d787	0.09611421
25	0x3e89ff82	0.2695275
26	0x3d64c303	0.05585004
27	0x3dc167b6	0.094436094
28	0x3eac9d8d	0.33713952
29	0x3d4944ca	0.049137868
30	0x3eac9c54	0.3371302
31	0x3de640ff	0.11242866
32	0x3ec9409f	0.39307114
33	0x3e44e502	0.19227985
34	0x3cd442d5	0.025910774
35	0x3e0794dd	0.1324038
36	0xbd08a311	-0.033358637
37	0xbe4a3d25	-0.19749887
38	0xbe9a9b2a	-0.30196506
39	0x3e94c709	0.29058102
40	0x3cc3e3ea	0.023912389
41	0x3d2279f1	0.039667074
42	0xbe79df2f	-0.24401544
43	0xbe2c4d77	-0.16826425
44	0x3e43b24f	0.19110988
45	0xbe85e41b	-0.26150593
46	0x3e18717f	0.14887045
47	0x3e1fcd8b	0.15605752
48	0xbd55c98b	-0.05219416
49	0x3e092f6a	0.13396993
50	0x3e2cf25d	0.16889329
51	0xbdaea1f8	-0.08526987
52	0x3e2ca1c9	0.16858591
53	0xbe47fce5	-0.19530065
54	0x3c89aa77	0.016804917
55	0xbe7942ab	-0.24341838
56	0x3bbda69e	0.0057876846
57	0x3db3f0ca	0.08786161
58	0x3bfe1c7c	0.0077548604
59	0xbe24ef7d	-0.16106983
60	0x3ea1e4fd	0.31620017
61	0xbe63d747	-0.2225009
62	0xbe800e1c	-0.25010765
63	0x3e15ff5f	0.14648198
64	0x3e342d92	0.17595509
65	0x3d8dc77f	0.069228165
66	0xbe1d256b	-0.15346305
67	0xbd81e644	-0.06342748
68	0xbe630424	-0.22169548
69	0x3d774f71	0.060378496
70	0xbe146600	-0.14492035
71	0x3e89f3a9	0.2694371
72	0xbe55c1b2	-0.2087467
73	0xbe81de80	-0.25365067
74	0x3e97ce94	0.29649794
75	0xbe3a5e98	-0.18200147
76	0xbe7e9de3	-0.24864917
77	0x3da59d0a	0.080865934
78	0xbd26de7c	-0.04073952
79	0x3ec32447	0.38113615
80	0xbe0a8d2e	-0.13530418
81	0x3d948aa7	0.07253008
82	0xbe773dd1	-0.24144675
83	0xbcd02ea8	-0.025412872
84	0xbe7d94f5	-0.24763854
85	0x3caffad6	0.021481913
86	0xbd582e76	-0.052778684
87	0x3e0e4bf2	0.13896158
88	0xbe074ad8	-0.13212144
89	0xbd9e2baf	-0.07723176
90	0x3e92a7c3	0.28643617
91	0xbc8ba803	-0.017047888
92	0xbe397446	-0.18110761
93	0x3ec0982c	0.37616098
94	0xbd81f0f4	-0.06344786
95	0xbe34c5f4	-0.17653638
96	0x3e80a435	0.2512528
97	0x3e02342e	0.12715217
98	0xbe5f0793	-0.21780233
99	0xbe836a26	-0.25666922
100	0xbdc69013	-0.09695449
101	0xbe194817	-0.14968906
102	0xbcf10792	-0.029422555
103	0xbe89d54f	-0.26920554
104	0x3e78b0b5	0.24286158
105	0xbe838e85	-0.2569467
106	0x3e997bbf	0.29977223
107	0xbe0044dd	-0.1252627
108	0x3ea0e75b	0.3142651
109	0xbdcd0860	-0.10011363
110	0xbe226984	-0.15860564
111	0x3eaf5a7f	0.3424873
112	0xbe49d9b7	-0.19711958
113	0x3e837c11	0.25680593
114	0x3e279984	0.16367155
115	0x3c914db6	0.01773725
116	0xbe63f426	-0.22261104
117	0xbd82eb62	-0.06392552
118	0x3ec00731	0.37505487
119	0x3e348fb1	0.17632939
120	0x3e4b2fd6	0.19842467
121	0xbd5d0716	-0.053961836
122	0xbe4ecebc	-0.2019605
123	0x3dc7b710	0.09751713
124	0xbe3fd675	-0.18734153
125	0x3ea14030	0.31494284
126	0x3eae5297	0.34047386
127	0xbe561606	-0.20906839
128	0x3e0c9991	0.13730456
129	0x3d991a4d	0.074757196
130	0xbe63242d	-0.22181769
131	0x3e3623c4	0.17787081
132	0xbe5c32ea	-0.21503797
133	0xbe01d739	-0.12679757
134	0xbe510e04	-0.20415503
135	0xbe8b32f3	-0.2718731
136	0x3ec1e771	0.37871888
137	0x3e512302	0.2042351
138	0x3e8ff3aa	0.28115588
139	0xbdec3ba6	-0.115348145
140	0x3ea15a12	0.3151403
141	0xbe95f15e	-0.2928571
142	0x3c0c5cad	0.0085670175
143	0x3d2cd037	0.042190757
144	0x3e966fe4	0.2938224
145	0xbe95df7d	-0.2927207
146	0xbe85f1e2	-0.26161104
147	0x3dbcb8ec	0.092149585
148	0x3ddd252b	0.10798105
149	0x3e1c6223	0.15271811
150	0x3babd4ca	0.0052438723
151	0xbe08eb55	-0.13371022
152	0x3d6bb896	0.05754908
153	0x3ea7e5f8	0.3279264
154	0xbdde6dd0	-0.10860789
155	0x3dcec8a7	0.10096865
156	0xbe796329	-0.24354233
157	0x3e014ca7	0.12626897
158	0x3df60f13	0.12014594
159	0xbea1e6c6	-0.3162138
160	0x3e951d44	0.2912389
161	0xbd5c9b22	-0.053858884
162	0xbd67ca24	-0.05658926
163	0xbdf95863	-0.121750616
164	0xbdc14536	-0.09437029
165	0xbe8ee21f	-0.27906892
166	0xbd065777	-0.032798257
167	0x3d13c803	0.036079418
168	0x3e0af3b8	0.13569534
169	0x3e71a91b	0.23599665
170	0xbe34c328	-0.17652571
171	0x3d4b698e	0.04966121
172	0xbe186f5c	-0.1488623
173	0xbcd82468	-0.026384547
174	0xbe99740f	-0.29971358
175	0xbda3a726	-0.079908654
176	0x3dec062c	0.11524615
177	0x3e92db80	0.2868309
178	0xbcffcee4	-0.031226583
179	0x3cf8a628	0.030352667
180	0xbe62c86a	-0.22146764
181	0x3e99f049	0.30066136
182	0xbcddc397	-0.027070804
183	0x3dfb8a6e	0.12282263
184	0xbd2a7468	-0.04161492
185	0x3e9e4b2a	0.3091672
186	0xbdf78bc5	-0.12087206
187	0x3e401d27	0.1876112
188	0x3e8975c9	0.26847675
189	0x3d9f1d3a	0.077692464
190	0xbe11db06	-0.14243707
191	0xbe84913d	-0.25892058
192	0xbe4d69f6	-0.20059952
193	0x3e83f87a	0.2577551
194	0x3ea3d8c3	0.32001314
195	0x3c2ed668	0.010671236
196	0x3e0be26b	0.1366059
197	0x3d28c138	0.041199893
198	0xbca43876	-0.020046454
199	0xbc19cba8	-0.009386934
200	0xbe205cd3	-0.1566041
201	0xbda7e461	-0.08197857
202	0xbe1cd6fe	-0.15316388
203	0x3e272813	0.16323881
204	0xbe5032e9	-0.2033192
205	0xbdf751d6	-0.12076156
206	0xbe8b925e	-0.27260107
207	0x3e886047	0.26635954
208	0x3d030d5f	0.031995174
209	0xbd622da0	-0.055219293
210	0x3eafc43f	0.3432941
211	0x3df438d2	0.119249
212	0x3e9a8f72	0.30187565
213	0xbe84020f	-0.2578282
214	0xbdbf7cd9	-0.09349985
215	0x3e3531a3	0.17694716
216	0x3dce36ca	0.10069044
217	0x3ea0c3b1	0.313993
218	0xbd65afe8	-0.05607596
219	0x3e852d60	0.2601118
220	0x3dd3d5fc	0.10343549
221	0xbd8dfaba	-0.06932588
222	0x3d2420bb	0.040070277
223	0xbddb72be	-0.10715245
224	0xbe876133	-0.26441345
225	0xbe74def9	-0.23913182
226	0xbe3a3e53	-0.18187837
227	0x3e46372c	0.19356984
228	0x3e841ea0	0.25804615
229	0x3ed14986	0.40876406
230	0x3cb7bb1f	0.022428093
231	0x3e93caff	0.2886581
232	0xbe3f42f1	-0.1867788
233	0xbe53cf9e	-0.20684668
234	0x3b2ce694	0.0026382552
235	0xbe10d9aa	-0.14145532
236	0x3e98cdda	0.29844552
237	0xbe773e20	-0.24144793
238	0x3d1ffc42	0.03905893
239	0xbd4bf8e0	-0.049797893
240	0x3e91fd53	0.28513584
241	0xbe829627	-0.25505182
242	0x3d2ee051	0.042694394
243	0x3e8e99c9	0.27851704
244	0xbe6e62a0	-0.2327981
245	0xbdb3ee42	-0.087856784
246	0x3e89526b	0.26820692
247	0xbe0b0196	-0.13574824
248	0x3e1d69b4	0.15372354
249	0x3e1279c2	0.1430426
250	0x3e349269	0.17633976
251	0xbd9f525e	-0.07779382
252	0x3da59b38	0.08086246
253	0x3e4ac377	0.19801126
254	0xbe68bf8d	-0.22729321
255	0xbd420475	-0.04736753

linear2.weight f4 [3, 256]
0	0xbdb94520	-0.09046388
1	0xbc2b1860	-0.010442823
2	0xbd1a21f6	-0.037630044
3	0xbdcea58c	-0.10090169
4	0xbde4ced4	-0.11172262
5	0xbd0ce104	-0.03439428
6	0x3d3735b3	0.044728946
7	0x3cc0b149	0.023522036
8	0xbd79e81e	-0.06101238
9	0xbd80331b	-0.062597476
10	0xbd026007	-0.03182986
11	0xbda12134	-0.07867661
12	0x3e028b7c	0.12748522
13	0xbdff4179	-0.1246366
14	0xbdaf356c	-0.08555111
15	0xbd3020d6	-0.043000065
16	0xbd571ce1	-0.052517775
17	0xbd4e7380	-0.050403118
18	0xbdb20eab	-0.08694204
19	0xbccfa5b8	-0.025347576
20	0x3cba6b52	0.022756252
21	0xbd59724c	-0.053087518
22	0xbda26468	-0.07929307
23	0xbd04af3c	-0.03239368
24	0xbd804b53	-0.06264367
25	0xbc573005	-0.013134007
26	0x3d7f24e0	0.062291026
27	0xbdb851c4	-0.089999706
28	0xbe01255d	-0.12611909
29	0xbda90307	-0.082525305
30	0xbd52abb7	-0.05143329
31	0xbc53f93d	-0.012937841
32	0xbde223b7	-0.11041968
33	0xbdd2c45d	-0.102913596
34	0x3b5ce066	0.0033703088
35	0x3cd8330a	0.026391525
36	0x3dbb24d6	0.09137885
37	0x3d0bad4e	0.034100823
38	0x3ca42adb	0.020039966
39	0xbd8fa2b5	-0.07013456
40	0xbdae362a	-0.08506425
41	0x3ce99bcd	0.028516674
42	0xbd67e871	-0.056618158
43	0xbda1c8b5	-0.0789961
44	0x3b18c02f	0.002330791
45	0x3ba21c30	0.004947208
46	0xbd025582	-0.031819828
47	0xbcf2f5ed	-0.029658282
48	0xbbdf6553	-0.0068174987
49	0xbcfe7b57	-0.031064672
50	0xbdd2a2bc	-0.10284945
51	0xbd8f87c7	-0.07008319
52	0xbbc5157e	-0.006014525
53	0xbd4fc471	-0.05072445
54	0x3c3b4504	0.011430029
55	0x3c8b2620	0.016985953
56	0xbcf1790a	-0.029476661
57	0xbde324b8	-0.11090988
58	0xbd018834	-0.031624034
59	0xbcc3c1fa	-0.023896206
60	0xbd9c8109	-0.07641799
61	0x3d295a68	0.041345984
62	0xbd8a4da6	-0.067530915
63	0x3ccc5141	0.024941089
64	0x3cb9fa6d	0.02270242
65	0xbe055cf9	-0.13023748
66	0xbb5204ba	-0.0032046274
67	0xbcc9b4df	-0.024622379
68	0xbd955ca9	-0.07293064
69	0xbcea610f	-0.028610734
70	0x3c9a6bf5	0.018850306
71	0xbdbc0fb7	-0.09182685
72	0xbaeca607	-0.0018054851
73	0xbd1b937a	-0.03798244
74	0x3dd31d43	0.103083156
75	0xbd6d16f7	-0.05788323
76	0xbca6743f	-0.020319102
77	0xbcb19491	-0.021677287
78	0xbdcf8195	-0.10132138
79	0xbe012d2a	-0.12614885
80	0xbb2b9998	-0.0026184078
81	0xbdb56420	-0.08856988
82	0xbd11d47c	-0.03560303
83	0x3ddf75c8	0.10911137
84	0x3d756cb8	0.059918135
85	0xbd872485	-0.065987624
86	0xbd63065c	-0.055425987
87	0x3d15135d	0.03639542
88	0x3cefc76e	0.0292699
89	0xbd5b0646	-0.05347278
90	0xbddabf99	-0.106810756
91	0xbda106a9	-0.078625984
92	0x3c0f8a18	0.008760951
93	0xbdfdebdf	-0.123985045
94	0xbdd201c7	-0.10254245
95	0x3cfed11f	0.031105576
96	0x3cb0d452	0.021585617
97	0xbb28c510	-0.0025752224
98	0x3df12e07	0.11776357
99	0x3d2cd4c0	0.04219508
100	0xbb7d8d09	-0.00386888
101	0x3d7357b8	0.059409827
102	0xbdb30f88	-0.08743197
103	0x3b568e69	0.0032738692
104	0xbcb55ed8	-0.022139952
105	0xbc8a89b4	-0.016911365
106	0xbbbdb3f5	-0.005789275
107	0xbd8074dd	-0.0627229
108	0xbcdd3f25	-0.027007649
109	0xbca86ac1	-0.020558717
110	0x3c96d069	0.018409925
111	0xbddd994d	-0.108202554
112	0x3d8da62a	0.06916459
113	0xbdb14a88	-0.08656794
114	0xbd18a5ac	-0.037267372
115	0xbb60253a	-0.0034201876
116	0xbe199d19	-0.15001334
117	0xbd2c713b	-0.042100172
118	0xbd9ca6a6	-0.07648973
119	0x3dc6a419	0.09699268
120	0xbd36e5f8	-0.04465291
121	0x3cd62351	0.026139887
122	0x3d5a95e8	0.053365618
123	0xbdc02c13	-0.093834065
124	0x3dcb6515	0.09931389
125	0xbdead7bc	-0.11466929
126	0xbd6b707b	-0.057480317
127	0x3d336286	0.04379513
128	0x3a72f2d5	0.0009267752
129	0xbdc66cca	-0.096887186
130	0xbd8c8c49	-0.06862695
131	0xbd52246a	-0.05130426
132	0x3d8e00e0	0.06933761
133	0x3d193e4e	0.037412934
134	0x3b6e08f6	0.003632126
135	0xbc60e0e8	-0.013725497
136	0xbd8858cf	-0.06657564
137	0x3cfdcc46	0.030981194
138	0xbdd373a0	-0.10324788
139	0x3d05b026	0.03263869
140	0xbce35723	-0.027751511
141	0xbc85ae81	-0.016318562
142	0x3ceb34eb	0.028711757
143	0xbd900a7b	-0.07033249
144	0xbd2cfdc4	-0.042234197
145	0x3d3c9c8d	0.046047736
146	0x3ab36f83	0.0013689849
147	0x3de7dcc0	0.113214016
148	0x3d3fb753	0.04680569
149	0xbb8b065b	-0.004242701
150	0xbba347b4	-0.004982913
151	0xbd2e561e	-0.042562596
152	0xbd434e32	-0.047681995
153	0xbd98263f	-0.0742917
154	0x3c9eec19	0.01939969
155	0xbd918007	-0.071044974
156	0xbddd60f7	-0.1080951
157	0xbc1959e6	-0.009359812
158	0xbd92157f	-0.07133006
159	0x3cc2d58d	0.02378347
160	0xbc4bce0a	-0.01243926
161	0xbd3e4896	-0.046455942
162	0xbd021bee	-0.031764917
163	0xbdfb1b24	-0.12261036
164	0x3cdc50d7	0.026894016
165	0xbc85001f	-0.01623541
166	0x3d5da4f0	0.054112375
167	0xbd4ff956	-0.050774895
168	0x3be15b78	0.006877359
169	0xbcb6e27d	-0.022324795
170	0xbdfe9df7	-0.12432473
171	0xbd96371c	-0.0733473
172	0xbbbb8a4b	-0.005723273
173	0xbd615a36	-0.055017672
174	0x3b421303	0.0029613383
175	0xbc8237e3	-0.01589579
176	0xbcf85852	-0.030315552
177	0xbdaba2ac	-0.083806366
178	0x3caa7c30	0.02081117
179	0x3aa7b0fc	0.0012793834
180	0xbb412aeb	-0.0029475044
181	0xb9cc917a	-0.000390183
182	0xbdfa3b4d	-0.12218342
183	0xbd35d53a	-0.0443928
184	0x3c84d992	0.016217027
185	0x3b8603b6	0.004089798
186	0xbc1b39a6	-0.009474194
187	0xbd80b978	-0.06285375
188	0xbdb2b0f4	-0.087251574
189	0x3cb4b1e7	0.022057487
190	0xbd4c9ac6	-0.04995229
191	0x3d977215	0.07394806
192	0xbd4d5310	-0.050128043
193	0xbd4f5bff	-0.050624844
194	0xbd13ab14	-0.036051825
195	0xbdc1ffa6	-0.09472589
196	0xbb89d72f	-0.00420656
197	0xbd989b47	-0.07451492
198	0xbcfdfed6	-0.031005304
199	0x3d255c62	0.040371306
200	0x3df670c0	0.12033224
201	0x3d8d2d38	0.068933904
202	0xbca6ff7e	-0.0203855
203	0x3c6a3c3d	0.0142965885
204	0x3d574c45	0.05256297
205	0xbcf24c0e	-0.029577281
206	0x3c26156b	0.010136942
207	0xbd965fc5	-0.07342485
208	0x3d7e852e	0.06213873
209	0xbdcdf270	-0.10056007
210	0xbdf0d771	-0.11759842
211	0xbc64d37a	-0.013966436
212	0x3d465f6c	0.048430845
213	0xbd8985b0	-0.06714952
214	0x3bad23fb	0.00528383
215	0xbd0984da	-0.033573963
216	0xbd8c0280	-0.06836414
217	0xbceeeaaa	-0.02916463
218	0xbc75d1fe	-0.015003679
219	0xbdc4ccb8	-0.096093595
220	0x3d8426b5	0.06452695
221	0xbd129507	-0.035786655
222	0xbb920e04	-0.004457237
223	0xbcbe1f95	-0.023208419
224	0xbdbc9e70	-0.09209907
225	0x3d49853e	0.049199335
226	0x3d881efd	0.066465355
227	0xbcce8f5d	-0.025214845
228	0xbdc27fe8	-0.094970524
229	0xbda2d74a	-0.079512194
230	0xbcfcc996	-0.030857842
231	0xbcaa3e76	-0.020781737
232	0xbc535d05	-0.012900596
233	0x3d43b8e6	0.047783755
234	0xbe06f16e	-0.13178036
235	0x3caa9c0f	0.020826368
236	0xbd2e0a7b	-0.042490464
237	0x3d574bfe	0.052562706
238	0x3cb5d509	0.02219631
239	0x3df7c7b0	0.12098634
240	0xbce738cc	-0.028225325
241	0x3cddab72	0.02705929
242	0x3d324e46	0.04353168
243	0xbd62770e	-0.05528932
244	0x3d08a5d0	0.033361256
245	0x3d2a6e9c	0.04160939
246	0xbd9aac6b	-0.07552417
247	0xbb9454f5	-0.004526729
248	0xbd38a1aa	-0.04507605
249	0xbdf33365	-0.11875037
250	0xbd429cf4	-0.047512963
251	0xbd8a74c2	-0.06760551
252	0xbda8c4a2	-0.0824063
253	0xbdaf537f	-0.085608475
254	0xbdc544d6	-0.0963227
255	0x3cb8411e	0.022491988

linear2.bias f4 [3]
0	0xbc84a0de	-0.016189989
1	0xbd346b7b	-0.044047814
2	0xbd11d38b	-0.035602134
