model/model.pth (torch, 17107 bytes, 4 tensors)

linear1.weight f4 [256, 11]
0	0xbe19a035	-0.1500252
1	0xbe47b903	-0.1950417
2	0x3db842e3	0.08997133
3	0x3e849e4b	0.25902018
4	0x3eb550ef	0.3541331
5	0xbd7fcb3c	-0.06244968
6	0x3d896b86	0.067099616
7	0xbea7fd38	-0.32810378
8	0xbe144e4f	-0.14482997
9	0xbf290974	-0.6603005
10	0xbe0e51bb	-0.13898365
11	0xbe7a0389	-0.24415411
12	0x3e1f9fa1	0.15588237
13	0x3ec7c75f	0.39019296
14	0x3e591b45	0.21201809
15	0xbe47cafa	-0.19511023
16	0xbdf45cfe	-0.11931799
17	0x3ae3fd37	0.001739419
18	0xbe36e0f8	-0.17859256
19	0xbe6be3b2	-0.23036078
20	0x3e4cc035	0.19995196
21	0xbde5413a	-0.111940816
22	0x3e660407	0.22462474
23	0x3ec4c031	0.3842788
24	0x3eae4fbf	0.34045216
25	0x3da14931	0.07875288
26	0xbe908d15	-0.28232637
27	0xbeb9288f	-0.36163756
28	0x3dace67c	0.08442399
29	0xbe29e162	-0.16589883
30	0x3ea66ff4	0.32507288
31	0x3eae8456	0.3408534
32	0x3d4ad4c1	0.049519304
33	0x3e86a521	0.26297858
34	0xbcbe3cdf	-0.023222385
35	0x3ed88dd6	0.42295712
36	0x3b8ea4b7	0.0043531316
37	0x3e58941f	0.21150254
38	0x3dae3fc9	0.0850826
39	0xbedb6b66	-0.42855376
40	0xbe0d23bc	-0.13783163
41	0xbe9c71b0	-0.30555487
42	0xbdd87958	-0.105700195
43	0x3eaf6b4f	0.34261557
44	0xbe113bb1	-0.14182927
45	0x3f0fabae	0.5612134
46	0x3e80b725	0.25139728
47	0x3d0cd7ae	0.034385376
48	0xbd16c899	-0.0368124
49	0xbd1bfcaa	-0.038082756
50	0xbe495de0	-0.19664717
51	0x3d111492	0.035420008
52	0x3d89851c	0.06714842
53	0xbe449b0b	-0.19199769
54	0x3e149aa3	0.14512114
55	0xbe1168c1	-0.14200117
56	0x3ef25e4a	0.47337562
57	0x3d02ac98	0.03190288
58	0xbeacb7cb	-0.33733973
59	0xbea4ad25	-0.3216335
60	0xbd1d8f7a	-0.038466908
61	0xbe12c73d	-0.14333816
62	0xbd5ebca3	-0.054379117
63	0xbd47747d	-0.048695076
64	0xbcc7695e	-0.024342235
65	0x3a58a04d	0.0008263633
66	0xbeb6303d	-0.35583678
67	0xbe51c19e	-0.20484015
68	0xbdcacf6f	-0.09902846
69	0xbd988790	-0.074477315
70	0x3e012aa8	0.12613928
71	0x3e1bf965	0.15231855
72	0xbe4643cb	-0.19361798
73	0x3d577e60	0.052610755
74	0xbe5f1b55	-0.2178777
75	0xbe0e4117	-0.13892017
76	0x3e4549e1	0.19266464
77	0x3ebbdfb7	0.36694118
78	0x3de8360e	0.11338435
79	0x3e490b3d	0.19633193
80	0xbe4e3767	-0.20138322
81	0xbe0ae7e4	-0.13565022
82	0xbe8abdf9	-0.27098063
83	0xbe55c649	-0.20876421
84	0x3e6488e9	0.22317852
85	0x3df965dc	0.12177631
86	0x3e6906cf	0.22756504
87	0x3e02ce56	0.12774023
88	0xbf021557	-0.5081381
89	0x3ecc2459	0.3987148
90	0xbe9f1806	-0.31073016
91	0x3e1166ad	0.14199324
92	0x3dde028b	0.10840329
93	0xbe56ba16	-0.20969424
94	0x3e79d93c	0.24399275
95	0x3e1bb08d	0.15204068
96	0x3e2a5c89	0.16636862
97	0xbdfe3b75	-0.12413684
98	0xbe035f19	-0.12829246
99	0xbec3aa8f	-0.38216063
100	0x3e6d43aa	0.23170343
101	0x3e238090	0.15967011
102	0xbeb30d05	-0.3497087
103	0xbe76674b	-0.2406284
104	0x3e9adfbe	0.30248827
105	0x3d68d6f3	0.056845617
106	0xbc244aec	-0.010027628
107	0x3d8f8f86	0.07009797
108	0x3e980216	0.2968909
109	0xbd6a0c42	-0.057140596
110	0x3ed84ae6	0.42244643
111	0x3eeefdfa	0.46678144
112	0x3e8f57dd	0.27996722
113	0xbcf67ffb	-0.030090323
114	0x3ce56066	0.028000068
115	0xbe9b8aee	-0.30379432
116	0x3e6769da	0.22598973
117	0x3d26c4c5	0.040714998
118	0x3dc1f433	0.094704054
119	0x3eacbb9a	0.3373688
120	0xbdfab9c5	-0.12242464
121	0x3e220d00	0.15825272
122	0xbebc0af4	-0.36727107
123	0x3f0f9c71	0.56098086
124	0x3d6d04f2	0.057866044
125	0xbd78d913	-0.060753893
126	0x3d6a3758	0.057181686
127	0xbe203efd	-0.15649028
128	0x3dda0e00	0.106472015
129	0x3e9291bf	0.2862682
130	0x3dcb41fc	0.09924695
131	0x3eb783b5	0.35842672
132	0x3eecd99d	0.46259776
133	0xbdff499f	-0.12465214
134	0x3d781df0	0.060575426
135	0xbe25a428	-0.16175902
136	0x3e8a6f26	0.27037925
137	0x3e95e9ec	0.2928003
138	0xbda66c94	-0.081261784
139	0x3e12ed4b	0.14348333
140	0xbd51d161	-0.05122507
141	0xbd59501f	-0.053054925
142	0x3e120f82	0.14263728
143	0x3e464eb6	0.19365963
144	0xbe311277	-0.172922
145	0x3f23434e	0.63774574
146	0x3e1f98a7	0.15585576
147	0xbdf69d32	-0.120417014
148	0x3e8407af	0.25787112
149	0xbe7d3b9c	-0.2472977
150	0xbdef1a1a	-0.116749
151	0x3e9fdc1b	0.31222615
152	0xbe90dc18	-0.28292918
153	0x3e9b3a1e	0.30317777
154	0x3e62e1f5	0.22156508
155	0xbe832072	-0.2561069
156	0x3f1ec664	0.6202147
157	0x3e836168	0.25660253
158	0x3e96fa84	0.29488003
159	0x3d31090d	0.043221522
160	0xbe0f6e3b	-0.14006893
161	0xbcb52210	-0.022110969
162	0x3e6215fe	0.22078702
163	0xbecd37a8	-0.40081525
164	0xbe618d8d	-0.22026654
165	0x3eebd86c	0.46063554
166	0x3ee2fae9	0.44332054
167	0xbecf7d20	-0.4052515
168	0x3d355b2e	0.04427641
169	0xbe9be121	-0.30445197
170	0x3d2703dd	0.04077517
171	0xbe18bc0b	-0.14915483
172	0x3e49a526	0.19691905
173	0x3df383e7	0.11890393
174	0x3ea19fe1	0.3156729
175	0xbd8761b1	-0.0661043
176	0x3f0bb882	0.5457841
177	0xbd1738d6	-0.036919437
178	0x3ed645cd	0.4185013
179	0x3d0ee43f	0.03488564
180	0xba970656	-0.0011522274
181	0x3b6e7fb9	0.0036392047
182	0x3e95dfc7	0.2927229
183	0x3e0278c2	0.12741378
184	0x3e466e2c	0.19377965
185	0x3e9fbfa7	0.31200907
186	0xbdec29dd	-0.11531422
187	0x3ed24909	0.41071346
188	0xbf14540c	-0.57940745
189	0x3e9d6605	0.30741897
190	0x3da33bce	0.07970391
191	0xbe452695	-0.19252999
192	0x3e03ea49	0.12882341
193	0xbba7cdf7	-0.0051209885
194	0x3e5c7976	0.21530709
195	0x3eb690da	0.35657388
196	0x3d4b600b	0.04965214
197	0x3e64addd	0.22331949
198	0x3dae83c4	0.08521226
199	0xbe694bf5	-0.22782882
200	0x3e581173	0.21100406
201	0x3d950067	0.07275467
202	0x3e713f38	0.23559272
203	0xbe97f641	-0.29680064
204	0xbe8f8758	-0.28032947
205	0xbe86c4e2	-0.26322085
206	0xbe44b3b6	-0.1920918
207	0x3ea7463c	0.32670772
208	0xbca5d8b3	-0.020244932
209	0x3e3083e3	0.17237811
210	0x3ef9dc31	0.48800805
211	0xbe2d37f0	-0.1691587
212	0xbe349bc7	-0.1763755
213	0xbe1ef922	-0.15524724
214	0x3c913de7	0.017729713
215	0x3df4cc14	0.11952987
216	0x3ea74d8e	0.32676357
217	0x3e046c0f	0.12931846
218	0x3e91e0df	0.28491876
219	0x3e596344	0.21229273
220	0x3d0fe497	0.03513011
221	0xbcc2c4ca	-0.023775477
222	0x3f1ba372	0.6079627
223	0x3ced98fa	0.029003609
224	0xbebe2952	-0.371409
225	0xbd8979d9	-0.06712694
226	0x3e863d25	0.26218525
227	0xbe029414	-0.127518
228	0x3e6ba6c8	0.23012841
229	0xbd0fa577	-0.03506991
230	0xbeb292c3	-0.34877595
231	0x3eda7b7a	0.4267233
232	0xbec99852	-0.39374024
233	0x3ef6659a	0.4812439
234	0x3e5a1352	0.21296433
235	0x3e57de04	0.21080786
236	0x3eb829ec	0.35969484
237	0x3e28fda0	0.16503
238	0x3d1066e7	0.035254385
239	0x3dc2864d	0.09498272
240	0xbe0b3bd2	-0.13597038
241	0x3e8af130	0.27137136
242	0x3e2a057d	0.16603656
243	0x3e7f6740	0.2494173
244	0x3f0149c7	0.505032
245	0x3e918a83	0.2842599
246	0x3e230946	0.15921506
247	0x3c5d9834	0.013525058
248	0x3db16510	0.08661854
249	0x3c11c1f7	0.0088963425
250	0xbe063c1f	-0.13108872
251	0x3db78d0c	0.089624494
252	0x3d7d4754	0.061835602
253	0x3eda3ef7	0.42626163
254	0x3e6f9bca	0.23399273
255	0xbdec955d	-0.11551926

linear1.bias f4 [256]
0	0x3eb89bee	0.36056465
1	0x3e4b04b3	0.19826011
2	0xbd21215c	-0.039338455
3	0x3db93918	0.09044093
4	0xbd926668	-0.07148439
5	0x3d663d7f	0.05621099
6	0xbe39e17d	-0.18152423
7	0x3df14172	0.11780061
8	0x3e44fd79	0.19237317
9	0xbe2cc5b4	-0.16872293
10	0xbdbd3ff7	-0.09240716
11	0xbde526d3	-0.11189046
12	0xbe5aa4f3	-0.21351986
13	0x3d5c5278	0.053789586
14	0xbb080502	-0.0020754938
15	0x3e901880	0.28143692
16	0xbe293b57	-0.16526543
17	0xbe1d614b	-0.15369146
18	0xbd31b838	-0.043388575
19	0x3d9fc376	0.07800953
20	0x3c072ce3	0.008250448
21	0xbe818264	-0.25294793
22	0x3e3c2da6	0.18376788
23	0x3df9e217	0.12201326
24	0x3de61516	0.112344906
25	0xbe027cd8	-0.12742937
26	0x3e54f3c1	0.2079611
27	0xbd8e7462	-0.06955792
28	0xbe34b5e9	-0.17647518
29	0x3d74e3a9	0.059787426
30	0xbeb1c7d5	-0.34722772
31	0xbda9ff9b	-0.08300706
32	0xbe898a08	-0.26863122
33	0x3e988560	0.29789257
34	0xbdb8ab4a	-0.09017046
35	0xbe215d59	-0.15758266
36	0x3ebcb278	0.3685491
37	0x3e362cd4	0.17790538
38	0xbe559b04	-0.20859915
39	0xbe14e4ba	-0.14540377
40	0xbe89256d	-0.26786366
41	0x3e05de2e	0.13073036
42	0x3d111865	0.035423655
43	0xbe026563	-0.12733988
44	0xbd5d7ec3	-0.054075968
45	0xbb4c7114	-0.003119533
46	0xbe1331e2	-0.14374498
47	0x3c6f09b7	0.014589719
48	0x3ea6bea5	0.32567325
49	0x3dbedabe	0.093190655
50	0x3d45e397	0.04831275
51	0xbc9d61ed	-0.019211734
52	0xbe9fa7ea	-0.31182796
53	0x3d8b86d8	0.06812829
54	0xbccb44ee	-0.024813142
55	0xbda18c2c	-0.07888064
56	0xbe91e806	-0.28497332
57	0x3db41e03	0.08794787
58	0x3d9affdd	0.07568333
59	0xbe2f98c0	-0.17148113
60	0x3e2c1ad2	0.16807106
61	0xbe124282	-0.14283183
62	0xbe3fefcd	-0.1874382
63	0xbcbbbe35	-0.022917846
64	0xbc0cf72f	-0.008603855
65	0xbe7dc6eb	-0.24782912
66	0x3d7066f4	0.058691934
67	0xbc8c3de7	-0.017119361
68	0x3df776d0	0.120832086
69	0xbd9daa03	-0.07698443
70	0x3df76daf	0.12081467
71	0x3e1d550f	0.15364479
72	0x3e8ea5f2	0.2786098
73	0x3e363f05	0.17797478
74	0x3ee0003d	0.43750182
75	0x3d1d280c	0.03836827
76	0xbd12dc0e	-0.03585439
77	0x3dea38c5	0.11436609
78	0xbe4946e1	-0.19655944
79	0xbd81b3dc	-0.063331336
80	0x3d99f964	0.075182706
81	0xbe4119b7	-0.18857466
82	0x3d69a378	0.05704066
83	0x3e909bec	0.2824396
84	0xbe0cfc2a	-0.13768068
85	0x3d8079df	0.06273245
86	0xbd9ebabe	-0.07750462
87	0xbe985ad7	-0.29756805
88	0x3e29f43f	0.16597079
89	0x3db2aed9	0.08724756
90	0xbd9fe3bd	-0.078071095
91	0xbdeec472	-0.11658563
92	0x3eaaa889	0.33331707
93	0x3cf1ed00	0.029531956
94	0xbe2e66da	-0.17031422
95	0xbd4b6e12	-0.049665518
96	0x3e9feb31	0.31234124
97	0x3e0b547b	0.13606445
98	0xbbefc848	-0.0073175766
99	0xbe13e894	-0.1444419
100	0x3e4af7bc	0.19821066
101	0x3eacc7c2	0.33746153
102	0xbe8c0288	-0.2734568
103	0xbd03c660	-0.032171607
104	0xbda9e55f	-0.08295702
105	0x3d97690f	0.07393085
106	0xbb53ef9b	-0.003233886
107	0x3e58f8d3	0.21188669
108	0x3e090e9f	0.13384484
109	0xbe26031e	-0.16212127
110	0x3df8926a	0.12137301
111	0xbc9f3c14	-0.019437827
112	0x3d3bd21f	0.045854684
113	0x3e12fac9	0.1435348
114	0x3e4cd0f5	0.20001586
115	0xbe624695	-0.22097237
116	0x3e1de4b1	0.1541927
117	0x3ca99147	0.020699156
118	0x3df7c07c	0.1209726
119	0xbdeaaab9	-0.11458344
120	0xbe66d683	-0.22542767
121	0xbd80b573	-0.06284609
122	0x3e7035cb	0.2345802
123	0x3c832364	0.016008087
124	0x3e63157b	0.22176163
125	0xbc5b51f8	-0.013386242
126	0xbe54f557	-0.20796715
127	0x3cffb919	0.031216191
128	0xbdb6c51d	-0.08924315
129	0x3e572b88	0.210127
130	0xbe93dc53	-0.28879032
131	0xbd480757	-0.048835125
132	0x3e5c9b59	0.21543635
133	0x3dba8d1f	0.09108948
134	0x3e5f1774	0.2178629
135	0xbe36ddf1	-0.17858101
136	0x3d8f89dd	0.07008717
137	0x3ebb3719	0.36565474
138	0xbe69d2d1	-0.22834326
139	0x3da34b1b	0.079733096
140	0xbebc02b2	-0.36720806
141	0xbd1a694c	-0.037698075
142	0xbd4e48ee	-0.05036252
143	0x3e238b76	0.15971169
144	0x3ea02deb	0.31285033
145	0xbe659d72	-0.22423342
146	0xbe9d49b2	-0.30720288
147	0x3d979411	0.07401288
148	0x3d12202b	0.03567521
149	0xbe62efc0	-0.2216177
150	0x3de9f4c3	0.11423638
151	0xbd8663de	-0.06562017
152	0xbdcaf861	-0.09910656
153	0x3cee9eab	0.029128393
154	0x3e2beba4	0.16789109
155	0x3d3834ee	0.044972353
156	0xbd556d43	-0.052106153
157	0xbe73276b	-0.23745506
158	0x3dc12a23	0.09431865
159	0x3e57a242	0.2105799
160	0x3ed65f33	0.41869506
161	0xbca818da	-0.020519663
162	0x3dd11251	0.10208572
163	0xbd854494	-0.06507221
164	0x3eeb0255	0.45900217
165	0xbe0f9164	-0.14020306
166	0x3cb29626	0.021800112
167	0x3eadc9f1	0.33943132
168	0xbe8c7eca	-0.27440482
169	0x3e4d9770	0.200773
170	0xbe59c9c0	-0.21268368
171	0xbd32d0e4	-0.043656245
172	0xbe5155af	-0.20442842
173	0x3d20f757	0.03929838
174	0x3dc7832c	0.09741816
175	0xbd803eb1	-0.062619574
176	0xbe826415	-0.25466982
177	0x3e62eb36	0.22160038
178	0x3ec64199	0.38721922
179	0x3dcfa55c	0.10138962
180	0x3c302902	0.0107519645
181	0x3ebb64f2	0.36600453
182	0xbe30e968	-0.17276537
183	0x3dad7ea3	0.0847142
184	0x3e5e1ebb	0.2169141
185	0xbe2beefd	-0.16790386
186	0xbde188a1	-0.11012388
187	0xbdb82de5	-0.08993129
188	0xbe4258d0	-0.18979192
189	0x3e42954e	0.19002268
190	0x3e928758	0.28618884
191	0xbbea694b	-0.007153665
192	0xbe2bd11c	-0.16778988
193	0xbeb1c3eb	-0.34719786
194	0xbe350815	-0.17678864
195	0x3d32d0dc	0.043656215
196	0x3ea4caa9	0.32185867
197	0xbe570d94	-0.21001273
198	0xbe20ca81	-0.15702249
199	0x3e01b164	0.12665325
200	0xbdd489a5	-0.10377816
201	0xbd36c50d	-0.044621516
202	0xbd83b8fb	-0.064317666
203	0x3d0e5769	0.03475133
204	0x3bc28132	0.0059358114
205	0xbe672fb4	-0.22576791
206	0x3e7bb25a	0.24579754
207	0xbe3e61fe	-0.18592069
208	0xbe10f4bb	-0.14155857
209	0xbeb7e8b9	-0.3591974
210	0xbdb07dda	-0.08617754
211	0x3d7fc18d	0.062440444
212	0xbdbf9e27	-0.09356337
213	0x3df5bbc1	0.11998702
214	0x3d6df2c4	0.058092847
215	0x3e13bbff	0.14427184
216	0x3d5c43d5	0.053775627
217	0x3eb1d1b3	0.347303
218	0xbe83de9c	-0.25755775
219	0x3e0d311c	0.13788265
220	0xbe9c18c8	-0.30487657
221	0xbea1983f	-0.31561467
222	0xbe34422f	-0.17603372
223	0xbeb6bfa4	-0.35693085
224	0xbe138f6b	-0.14410178
225	0x3c2df8b3	0.010618377
226	0x3cb2d29e	0.021828946
227	0xbe3cdccb	-0.18443601
228	0x3e324638	0.17409599
229	0x3e1e0ac4	0.15433794
230	0xbe1d8bde	-0.15385386
231	0xbe15ecfb	-0.14641182
232	0x3b9e410f	0.004829533
233	0x3e53f925	0.2070051
234	0x3e5ce018	0.2156986
235	0x3ca07898	0.019588754
236	0x3e19f2a1	0.15033962
237	0x3e451930	0.1924789
238	0x3e3bdf1c	0.18346828
239	0xbe92ec4a	-0.286959
240	0xbd28ba04	-0.041193023
241	0xbe2a02db	-0.16602652
242	0x3d10ac6b	0.03532068
243	0x3e0d548d	0.13801785
244	0x3d2b31db	0.041795593
245	0x3e497f13	0.19677381
246	0xbdd76af8	-0.105184495
247	0xbd967447	-0.07346397
248	0x3c51af75	0.01279818
249	0x3ce104f1	0.027468177
250	0xbe5c5d16	-0.21519884
251	0xbe525600	-0.20540619
252	0x3e920d84	0.28525937
253	0x3e2c2332	0.16810301
254	0xbe8eab4f	-0.27865073
255	0x3df94b4b	0.12172564

linear2.weight f4 [3, 256]
0	0x3e6f94d5	0.23396619
1	0x3d89374f	0.067000024
2	0xbe0f32cf	-0.13984226
3	0xbe722349	-0.23646273
4	0xbd7bdba3	-0.06148876
5	0xbd9d9719	-0.07694835
6	0xbd85be70	-0.06530464
7	0xbe00d5d8	-0.12581575
8	0x3e580f3a	0.21099558
9	0x3e5ada15	0.21372254
10	0xbe5fe2c6	-0.21863851
11	0xbe38357a	-0.1798915
12	0xbe238aba	-0.15970889
13	0xbdbb1c5e	-0.0913627
14	0x3e52622a	0.20545259
15	0xbe119950	-0.1421864
16	0xbe80e610	-0.25175524
17	0xbe9f2072	-0.3107944
18	0xbe9fa1f5	-0.3117825
19	0xbe0e24da	-0.13881245
20	0xbdab1ea0	-0.08355451
21	0xbe0c24e0	-0.13685942
22	0xbc55dc1e	-0.013052968
23	0xbdaafff5	-0.08349601
24	0xbdc03299	-0.09384651
25	0xbdaad2ac	-0.08340964
26	0x3ec9bae3	0.39400396
27	0xbe321592	-0.17391041
28	0xbc96d913	-0.018414056
29	0x3dd8db7c	0.10588738
30	0x3b52caa2	0.0032164236
31	0xbe3afe5b	-0.18261091
32	0x3af0337a	0.0018325888
33	0xbc872db8	-0.016501293
34	0xbe633ff2	-0.22192362
35	0xbe26ceb9	-0.16289796
36	0x3d26bb5e	0.04070603
37	0x3de9fce4	0.11425188
38	0x3e4523f3	0.19251995
39	0xbd21909e	-0.03944456
40	0x3e902430	0.2815261
41	0x3e7ae6e8	0.24502146
42	0x3e8ab699	0.27092436
43	0xbe6d5812	-0.23178127
44	0xbdcade3f	-0.09905671
45	0xbe97166a	-0.29509288
46	0x3d7b3b87	0.061336067
47	0x3e5783a9	0.21046318
48	0x3d8db01f	0.06918358
49	0xbe0d9051	-0.13824584
50	0xbd964457	-0.073372535
51	0xbe2a1516	-0.16609606
52	0xbc68c44a	-0.014206955
53	0xbd5aeca0	-0.05344832
54	0xbe3c7cdf	-0.1840701
55	0x3dec1015	0.11526505
56	0xbccd3018	-0.025047347
57	0xbcfafd3d	-0.030638332
58	0x3db2d08e	0.08731185
59	0xbe476277	-0.19471155
60	0x3e35e812	0.17764309
61	0xbe746e94	-0.23870307
62	0xbea538af	-0.3226981
63	0x3e4403bf	0.19142054
64	0xbdbfed94	-0.09371486
65	0xbe4ed3ac	-0.20197934
66	0xbe1abbd2	-0.1511071
67	0xbe21dc23	-0.15806632
68	0x3ecb0fab	0.3966039
69	0xbc7f96b9	-0.0155999
70	0xbc638f6c	-0.013889175
71	0x3e4a2a89	0.19742788
72	0x3ec5bf23	0.38622388
73	0xbe006d4b	-0.12541692
74	0x3e89de59	0.2692745
75	0xbcb6c7e9	-0.022312121
76	0xbdc07fed	-0.093994
77	0xb9f409da	-0.00046546647
78	0x3e697db3	0.22801857
79	0xbe63ddb1	-0.22252537
80	0xbd3bf029	-0.04588333
81	0x3e111cd5	0.14171155
82	0xbe9e8285	-0.30958953
83	0xbdc4da1c	-0.096119136
84	0x3e8635c9	0.2621291
85	0xbe9a074a	-0.30083686
86	0x3e6dd2de	0.2322497
87	0xbe315313	-0.17316847
88	0x3d02a3c5	0.031894464
89	0xbdf6f602	-0.12058641
90	0xbec68b28	-0.38778043
91	0x3d9ef927	0.07762366
92	0x3e9649e4	0.2935325
93	0x3e83017e	0.25587076
94	0xbec66459	-0.38748434
95	0x3e1b66a7	0.15175878
96	0x3e53445b	0.20631544
97	0x3d538330	0.051638782
98	0xbdd1db5a	-0.10246916
99	0xbd1e2566	-0.038609885
100	0x3c813681	0.01577306
101	0x3db967d5	0.090530075
102	0x3b02ebe7	0.0019977035
103	0x3d9382e8	0.07202703
104	0x3e9f0759	0.31060293
105	0x3d41c491	0.0473066
106	0xbce9b2fd	-0.028527731
107	0x3e183c43	0.14866738
108	0x3ea20aaa	0.3164876
109	0x3e51dc12	0.20494106
110	0xbbcaeb66	-0.0061926125
111	0xbdfbe430	-0.12299383
112	0xbdb1b89f	-0.08677792
113	0xbe139473	-0.14412098
114	0x3e45d013	0.19317655
115	0xbe24efe3	-0.16107135
116	0xbdfdb0f4	-0.12387267
117	0xbe069e05	-0.13146217
118	0xbe2ce292	-0.16883305
119	0x3c90952f	0.017649261
120	0xbcdc5953	-0.026898062
121	0xbeed464b	-0.46342692
122	0x3e2d2577	0.16908823
123	0xbe187079	-0.14886655
124	0x3db1db19	0.08684368
125	0xbe2e95ec	-0.17049378
126	0xbed22ee1	-0.4105139
127	0xbe9fd40d	-0.3121647
128	0xbebf8c43	-0.374117
129	0xbd2dd030	-0.04243487
130	0xbe4020e2	-0.18762544
131	0x3e0f77c2	0.14010528
132	0xbe7784d9	-0.24171771
133	0xbcc4697d	-0.023976082
134	0xbd1b3c4d	-0.037899304
135	0x3c658eb0	0.01401107
136	0xbdcbed78	-0.09957403
137	0x3d961c6f	0.07329642
138	0xbd8c7b9c	-0.06859514
139	0xbe43a315	-0.1910518
140	0xb973e8a2	-0.00023260948
141	0xbe8b1804	-0.2716676
142	0x3ed9ad4d	0.4251503
143	0xbbc50b34	-0.0060132984
144	0x3e4ed409	0.20198072
145	0xbe1ebcb2	-0.15501669
146	0xbc91ec6b	-0.017812928
147	0xbe3200bc	-0.17383093
148	0x3e555226	0.20832118
149	0xbe0af6ca	-0.13570705
150	0xbdcb5322	-0.09927966
151	0xbe5fcdd0	-0.21855855
152	0xbb60dee5	-0.0034312543
153	0xbd9e389f	-0.07725643
154	0x3e15c7ed	0.14627047
155	0x3e985c43	0.2975789
156	0xbde348d6	-0.11097877
157	0xbe42dac7	-0.1902877
158	0xbe06546c	-0.13118142
159	0x3bad135b	0.0052818484
160	0x3e198116	0.14990649
161	0x3e968d89	0.29404858
162	0xbdc4cdcc	-0.09609565
163	0xbe52b634	-0.20577317
164	0x3e5be69c	0.21474689
165	0x3e2016c9	0.15633692
166	0x3cd87be9	0.026426272
167	0x3e30a505	0.1725045
168	0xbe93f839	-0.28900316
169	0xbe025729	-0.12728561
170	0xbe9ca705	-0.30596176
171	0xbf277399	-0.65410763
172	0x3d1fc9cc	0.039010808
173	0xbe26b0dd	-0.16278405
174	0xbc327a44	-0.010893408
175	0x3e3228db	0.17398398
176	0xbcb493c9	-0.022043126
177	0x3dd20d7a	0.10256477
178	0x3e36a885	0.17837723
179	0x3abd6e0c	0.0014452352
180	0xbebcf337	-0.36904308
181	0x3e870c9c	0.26376808
182	0xbea5c46f	-0.3237643
183	0xbd3cf736	-0.046134196
184	0xbb93b7c7	-0.004507992
185	0xbeace49f	-0.33768174
186	0xbdeac63f	-0.11463594
187	0x3e22463f	0.1584711
188	0x3e4c2d05	0.19939049
189	0x3ddde3c9	0.10834462
190	0x3ec573b9	0.38564852
191	0xbe4052a7	-0.1878153
192	0xbc6b6f3b	-0.014369781
193	0xbe16f883	-0.14743237
194	0x3e6f67b4	0.23379403
195	0xbd64c959	-0.055856083
196	0x3e5a7ef2	0.21337488
197	0x3cc16965	0.023609826
198	0x3e044c52	0.12919739
199	0xbdf38ac0	-0.11891699
200	0xbe208141	-0.15674306
201	0xbdab4c1c	-0.08364126
202	0xbdf4d759	-0.11955137
203	0x3e8a34e4	0.26993477
204	0xbeb07f42	-0.3447209
205	0xbee6aa8d	-0.45051995
206	0x3e16b1a0	0.14716196
207	0xbcb8182e	-0.022472467
208	0xbe06f2e6	-0.13178596
209	0xbe22e92b	-0.15909259
210	0x3ea1610e	0.3151936
211	0x3d7210bc	0.05909799
212	0x3e3d6d22	0.18498662
213	0x3e31b6e0	0.17354918
214	0x3db7ddd4	0.08977857
215	0x3e71a72c	0.23598927
216	0x3cde97e3	0.027172035
217	0x3ea93d23	0.33054456
218	0x3cd04d00	0.025427341
219	0x3e6815c3	0.22664551
220	0xbd8baac9	-0.06819684
221	0xbd929e0f	-0.071590535
222	0x3e3b4da6	0.1829134
223	0xbb7b0d3d	-0.0038307451
224	0xbea487d6	-0.32134885
225	0xbeba77cd	-0.36419526
226	0x3eb9353f	0.36173436
227	0xbea7b686	-0.32756442
228	0x3b1d2b59	0.0023982136
229	0xbdf8d4fd	-0.12149999
230	0xbde8bdc1	-0.11364318
231	0xbe0aff58	-0.13573968
232	0xbcdf6e8d	-0.027274394
233	0x3e26187d	0.16220279
234	0xbca88af5	-0.020574072
235	0xbd42a836	-0.0475237
236	0x3e92a4d2	0.28641373
237	0xbe01f560	-0.1269126
238	0xbe039d5f	-0.12853001
239	0x3ca64e8c	0.020301126
240	0x3d9bcbcd	0.07607231
241	0xbe219bbd	-0.15782066
242	0xbd3a8cfc	-0.04554461
243	0xbe4a2d58	-0.1974386
244	0xbe4f8ba4	-0.20268112
245	0x3e378c7b	0.17924683
246	0xbda42c85	-0.08016304
247	0xbedb9ff8	-0.42895484
248	0x3dbafcf2	0.09130277
249	0xbdc4461a	-0.09583683
250	0xbe8ecb29	-0.27889374
251	0x3cc2499c	0.02371674
252	0x3dae3633	0.085064314
253	0xbe0a41e3	-0.13501696
254	0x3d176182	0.036958225
255	0xbe07179e	-0.13192603

linear2.bias f4 [3]
0	0x3d526739	0.051367972
1	0xbde9b65e	-0.11411737
2	0xbd6c7252	-0.05772621
