model/model.pth (torch, 17107 bytes, 4 tensors)

linear1.weight f4 [256, 11]
00000000: d1c4 713d 4dee 54be 7541 44be d8f8 213e
00000010: 078d 333d 6fcf e2bd 9e75 0fbe 04c5 86be
00000020: aad8 39be a94e 1fbe facb a83d b84e e43d
00000030: b18a 84be b759 723e 1798 08bd 7a39 3abd
00000040: f242 8cbe 8f48 33be 7fb4 42bd 8b44 08be
00000050: d834 fc3d 73a5 8d3e ee01 053d e879 843d
00000060: aa54 62be 4798 cfbc a31b 98be ff69 28be
00000070: 65b1 4ebe 3b98 353e 1e68 143e 2425 8abe
00000080: c361 653e da39 abbd 8d2a ae3c 7d27 96be
00000090: 8b02 2a3e da02 41be f0df 2cbe 28e7 cd3d
000000a0: ff06 433e a78a ccbd c746 7d3e e034 673e
000000b0: 8cd9 023e bab8 8fbd f662 5f3d 60d8 f03d
000000c0: e5f4 573d 8375 c6bc 41e1 9bbe 35c8 ba3d
000000d0: fb6a 243c 5bf6 903e a205 7dbd 5fc6 c53d
000000e0: 4bb4 50be b74e 033c 3f4d 46be 9221 85be
000000f0: 0ba9 35be 5cdf 82be 248c 93be 2e88 633e
00000100: 9dff 963e f8b9 623d db11 8dbe ee53 3f3d
00000110: 2ca8 913e e71a 4c3d 93f5 213e f96e 133d
00000120: 2671 823e 8c74 553e ccd7 8bbe a943 2bbe
00000130: 8507 083e 8173 1f3e b724 f23d bc4b 553e
00000140: 09ed 5e3e a9ab 793e febd f9bd 9089 363e
00000150: 846b d63c 04f3 f2bc a9a7 30bd 7ceb 593e
00000160: 6733 8cbd eb34 8fbd d1d7 43be e717 bbbc
00000170: 1461 fbbd 9e90 da3c 1b5b bcbd a40e 0a3e
00000180: 71d7 8e3e 9411 dd3d f6af 643e 1fd9 bdbd
00000190: 803c 613e 70a1 b3bd 10ea 38be 1726 94be
000001a0: d43b 91bd bacc 8fbd 4d6c 6d3d 2c86 01be
000001b0: 408e 4fbe 5236 66be da21 3dbe 3e6c 86be
000001c0: a8ac 89bd 43c5 b5bd 7168 003e b94e 2ebe
000001d0: 5127 68be c71b 94be 2c72 743e a571 3cbb
000001e0: dd0c 253e 3e1b 56bd 29d9 a1bd fc7e 603e
000001f0: a527 9d3e bce5 843e 18d7 82be 8138 eb3c
00000200: 8f2a a3bd 1fe4 023e cb8c 0c3e 5806 7fbe
00000210: 7637 27be 0da7 87be 2006 5bbe 98d0 05be
00000220: 0465 86be 9de7 cc3d 84cd a63d 5376 93be
00000230: f430 98be c742 463e fd8a fe3d e228 c43d
00000240: b14b 3bbe d0ae f33d 5088 a8bc 01a5 f9bd
00000250: 41bc 0ebe 155d 613e face 013c ca00 95be
00000260: 6ece 01be e8ad b5bd eb38 513e 976d 9d3e
00000270: a473 673e 13ee 533e bf4e 013e 93fa a33c
00000280: 64ec 103e b5ed a1bd 90bb 29bd 0d75 83be
00000290: f353 64be 0368 94bd 7c41 0bbe 8411 433c
000002a0: 3ad1 d3bc 02b9 6d3e 445a 4b3e 1e1d 53be
000002b0: a594 2bbe e513 91be d5f1 02be cd61 fdbc
000002c0: 61cd 9c3e e256 733e 5edb d9bc 6fc9 2dbe
000002d0: ef6b 37be feb8 713d 6c93 11be f298 4d3d
000002e0: a5eb e8bd 1108 983e cebe 593e f0d6 933e
000002f0: 0ec4 cfbd af8f 663e 899a 22be 9d9d 39bd
00000300: 7a1a 82bd 11c7 973c 33f0 703e 0275 a03d
00000310: 8140 53be 3559 20be 2a18 8a3e 7774 a5bd
00000320: 2ff2 3c3e 2cfa 92be 10fd f8bd be6e 8dbe
00000330: c793 8b3e 569e 24be abf1 e8bd fa6e 06be
00000340: 9934 4e3e 9dbc 213e a918 82be b48b 7cbe
00000350: a59f 95be d845 9f3d 28b5 61be 3cb3 ee3d
00000360: 0b9e f53d 2f64 64be b669 4abe e826 d03d
00000370: 00ad 9e3d 5c3d 6b3e 2fae 9ebd 304a 2dbe
00000380: 53c3 af3d ead1 88be fda6 94be d383 ea3c
00000390: 85c9 7fbe d1cb 973e 3df0 1dbe a735 13be
000003a0: 678a 90bc baba 71be 3ef2 643e 331a 4c3e
000003b0: 6eac ac3c af42 39be a9e4 903e 521e 653d
000003c0: 8e39 0fbe 393f 693e ea6b 863e e490 83bd
000003d0: ac2a 56be 4d3b 1fbd 3b4e 583e 9946 7c3d
000003e0: 5dfd cf3d 1b42 36be a13a 303e 0fea 6dbe
000003f0: 895d 683e bea1 8cbd 74be 0e3e 6835 8cbe
0.05902559 -0.2079403 -0.19165595 0.15817583 0.043835666 -0.11074721 -0.14009711 -0.26322186
-0.18149057 -0.1555735 0.082420304 0.11147827 -0.25887063 0.23667036 -0.03334817 -0.04546497
-0.27394825 -0.17508148 -0.047535416 -0.13307397 0.12314767 0.2766529 0.032472543 0.06468564
-0.2210261 -0.025341166 -0.29708585 -0.16446684 -0.20184858 0.17733853 0.14492843 -0.2698146
0.22400574 -0.08360644 0.021260524 -0.29327002 0.16602533 -0.18848744 -0.168823 0.10053855
0.19045638 -0.09987383 0.2473403 0.22578764 0.127783 -0.07017656 0.054537736 0.1176002
0.052723784 -0.024225956 -0.30445293 0.09120218 0.010035272 0.28312954 -0.06177295 0.09656977
-0.20381276 0.008014373 -0.19365405 -0.26002175 -0.17740266 -0.25561035 -0.28817856 0.22219917
0.29491892 0.055353135 -0.27552685 0.0467109 0.28448617 0.049830344 0.15816335 0.035994504
0.2547695 0.2084524 -0.27313077 -0.16725029 0.13284118 0.15571405 0.11823409 0.20829672
0.21770109 0.2438189 -0.12194441 0.17825913 0.026174314 -0.029656895 -0.043128643 0.21281236
-0.06845742 -0.06992515 -0.19125296 -0.022838546 -0.122743756 0.026680287 -0.091970645 0.13482147
0.27898744 0.107943684 0.22332749 -0.09269928 0.21995735 -0.08771026 -0.18058038 -0.2893531
-0.070914894 -0.0702147 0.05796461 -0.12648839 -0.20269108 -0.22481659 -0.18469945 -0.26254457
-0.06722385 -0.08875515 0.12539841 -0.17022218 -0.22671248 -0.28927442 0.23871678 -0.002875426
0.16118188 -0.052272074 -0.07902748 0.2192344 0.3069431 0.25956523 -0.25554729 0.028713467
-0.07967102 0.12782334 0.13725583 -0.24904764 -0.1632975 -0.26494637 -0.21389055 -0.13067853
-0.26248944 0.10005114 0.08144668 -0.28801212 -0.29724848 0.19361411 0.12428854 0.0957811
-0.18290593 0.11898577 -0.020572811 -0.12189675 -0.13939 0.22008164 0.007922882 -0.29102165
-0.12676403 -0.088710606 0.20431869 0.30747673 0.22602707 0.20696287 0.12627696 0.020016944
0.14152676 -0.07906667 -0.04143864 -0.2567524 -0.22297649 -0.07246401 -0.13599199 0.0119060315
-0.025856603 0.23215106 0.19858652 -0.20616576 -0.16755922 -0.2833549 -0.12787564 -0.030930424
0.30625442 0.23763612 -0.02659386 -0.16971372 -0.17912267 0.059014313 -0.14216393 0.05019469
-0.113730706 0.29693654 0.21264192 0.28874922 -0.10144816 0.22515748 -0.15879263 -0.045316327
-0.06352706 0.01852754 0.23529129 0.078348175 -0.20630075 -0.1565903 0.2697156 -0.080788545
0.1845176 -0.2870649 -0.12157643 -0.27623552 0.27261183 -0.16076025 -0.113742195 -0.13128272
0.20137252 0.15794607 -0.2540944 -0.24662668 -0.29223362 0.077769935 -0.22041762 0.1165528
0.11993035 -0.22303842 -0.19766888 0.10163671 0.07747841 0.22972625 -0.07748067 -0.16922832
0.08582177 -0.26722652 -0.29033652 0.028627312 -0.24979217 0.29647687 -0.15423675 -0.14375935
-0.01764412 -0.23606387 0.22358033 0.19931869 0.021078315 -0.18091844 0.28299454 0.05593712
-0.13986799 0.22778024 0.26254207 -0.0642412 -0.20914716 -0.038874913 0.21123593 0.061590765
0.10155747 -0.17798655 0.17209865 -0.23233818 0.22691931 -0.068667874 0.1393984 -0.27384496

linear1.bias f4 [256]
00000000: 4d71 bebd 358c 913e c8fa 493e 7067 933d
00000010: dea7 c93d 789b 063d 2c72 273e b215 2abd
00000020: 75ad 5a3d 205e 4fbe 6a4e af3b 4018 acbc
00000030: 77c7 b63d 1a7c 193c 4f90 363e e7a0 1e3e
00000040: 4fc0 4a3e 3a56 463e 1e8d 90be d28f d53d
00000050: 56d4 6b3e f873 823e 81a6 c5bd a031 b83d
00000060: ba6a 11be 1423 6ebe 2dfd 4cbe ac46 113e
00000070: dbbc d53d 3e97 c5bd 0e8f 483e 2489 563d
00000080: 6a11 96bd bb66 3abe fa23 4a3e 86e6 9d3c
00000090: d193 863e 6deb 313e 406b 3f3d 7086 36be
000000a0: 09ed 7f3e bfaf 47be e988 293e 50d2 dd3d
000000b0: b3f7 4cbe cf0e 99be 7cd5 993e 8fed 653d
000000c0: 17e2 81be 2190 68be f1cf 54be 3223 8abe
000000d0: 5319 7fbe 5adf debd 1814 72be 7274 863e
000000e0: 91ef 883e 2caa bc3c a6f1 7d3e a755 ffbd
000000f0: 3bb0 283d f483 5d3d 32a2 0e3d 4e40 7a3d
00000100: 079f 89be b18c a03d e45a 91be 2b51 50be
00000110: 5e47 47be c211 6dbe 3264 753e 327b 543d
00000120: 6233 1abe 3d00 01bd 3c32 7c3d c8d5 943e
00000130: ffea 493d cd9b 99be 1f52 1cbe 2e0a 55be
00000140: e1ff 83bb 2db5 22be db6e 32be 3cfd 8f3e
00000150: 62db 6b3e 12bb 203c ee7a 753e 9094 adbd
00000160: dc2e 0f3e 0494 fdbd 4355 6fbe c1bf 303e
00000170: fa23 d93d f30f 913d 6a04 173e 18f0 183e
00000180: e9de b3bd ed40 833e 1b79 b73d 695b 06be
00000190: a90f 8abe 6896 babc dcc1 aabd ce66 bdbc
000001a0: de95 7f3e 1009 54bd 5880 91bc 469b fabd
000001b0: 3235 98bd 8ef6 d23d 1242 5a3e 0c43 c13c
000001c0: 651e 463d d815 71be b253 4abe 3ab4 ffbd
000001d0: bb68 023d 2847 903e 034a cd3b edf0 b7bd
000001e0: 6216 f93d 3214 44be 993c 47be 13e1 8a3e
000001f0: 1505 81be 033e f7bd fa31 29be 23bb eabd
00000200: 9c05 02be f746 1bbe 8a8c 6ebe c57b 2bbe
00000210: b4e7 5b3e 5268 59be 242e 093e e1fb 003d
00000220: 6ddf e6bd 652b 97bd ccc7 1fbc b23b 6bbe
00000230: f090 93be 3e26 b9ba cc23 583e 9dea 2abe
00000240: c72a 06be 3b45 6c3e a128 5c3e 692e 9cbd
00000250: 55a6 7cbe 950e 813e 25bf 0ebc 8c38 77be
00000260: 6786 a13d 028e 4d3c a342 dcbd 7b34 97bd
00000270: a322 e0bd 3326 833e f96d 79be 2f26 aebc
00000280: de96 8a3c bc3d 843d 8840 193e 2098 30bd
00000290: adc2 3f3e d2e2 c23d 0d59 ebbc 35f3 babd
000002a0: 8890 c13b 316c 92be fdea 6ebd 4a0b 063e
000002b0: dbbb 923e a865 44bd b8c8 4d3e ffaa 6fbe
000002c0: 2120 ca3c 3f53 80bd 6863 733e 8391 413e
000002d0: fee3 ddbd ac06 e33d 9fc8 31be f80d 9ebd
000002e0: 055a 9fbd f543 38be cece 53bb cb6a 363e
000002f0: 557d 5dbd 6efd d8bd 3421 03be 3bc3 093e
00000300: c987 3c3e 2170 963e c1d4 52be 2c29 813e
00000310: 922d 3ebd 44f4 e7bd 2b3b f5bc 7455 183e
00000320: cbe0 29be d2ba 96bb f58d d3bd 9d8a 70be
00000330: b989 3c3b 580a 3c3d fb32 d7bc ac87 94be
00000340: 01fc f6bb 20f6 593e 49b9 233e 7ac7 88be
00000350: faeb 113e 7d10 933e f3d7 013c c8a3 eabc
00000360: bb99 193e f606 863e f479 5d3e b0a9 62be
00000370: bfdf b33d 0e16 86bd f11d 13be 0b84 e63d
00000380: a2d2 823e 7401 61be 4888 bbba 5756 08be
00000390: 65cd f5bc f4ce 92be 452a 36be d43e 9fbd
000003a0: 533d e53d 1e99 553e 7f0e a03d 4f7e 703e
000003b0: 1b54 8fbe 67a1 4e3d 4296 48be 1e3c 69be
000003c0: a0d6 1cbe 9bbe 18be 4c08 6bbd 1fc4 bb3d
000003d0: 9a51 85be 2c72 90be a634 2cbe 8a11 86bd
000003e0: 2d96 01be 2b4f 20be a52d 213e 583d 1c3c
000003f0: 1409 82be 6639 56be f19f 51be a763 933e
-0.09298954 0.28427282 0.19724572 0.071974635 0.09846471 0.03286311 0.16352147 -0.041524597
0.053388078 -0.2025075 0.005349924 -0.021007657 0.08924764 0.009367967 0.17828487 0.15491067
0.19799922 0.1936883 -0.28232664 0.10427822 0.23030218 0.25479102 -0.09650899 0.0899384
-0.14200869 -0.23255569 -0.20018454 0.14187115 0.10436412 -0.09647988 0.19585821 0.05237688
-0.0732754 -0.18203251 0.19740286 0.019274961 0.2628465 0.17374964 0.04673314 -0.17824721
0.24992765 -0.19500636 0.16556133 0.108311296 -0.20016365 -0.2989411 0.30045688 0.056134757
-0.25367805 -0.22711231 -0.20782448 -0.26979977 -0.24912004 -0.10882445 -0.23640478 0.26260716
0.26745275 0.023030363 0.24799213 -0.12467509 0.04118369 0.05408092 0.03482265 0.061096482
-0.2687914 0.07839335 -0.28389657 -0.20343463 -0.19460818 -0.23151305 0.23964003 0.0518753
-0.15058663 -0.031494368 0.061571345 0.29069352 0.049296375 -0.3000168 -0.15265702 -0.20804664
-0.004028306 -0.15889426 -0.174251 0.2812289 0.23032907 0.009810226 0.23972675 -0.08475602
0.13982719 -0.12381747 -0.23372369 0.17260648 0.10602565 0.0708312 0.14747778 0.14935338
-0.08782751 0.25635472 0.08958646 -0.13120808 -0.26965073 -0.022776797 -0.08337757 -0.02312031
0.24959514 -0.051766455 -0.017761394 -0.12236647 -0.07432021 0.10300933 0.21314266 0.02359154
0.04836883 -0.23543489 -0.1975849 -0.12485547 0.03183816 0.28179288 0.0062649264 -0.089815
0.12162472 -0.19148329 -0.1945671 0.27124843 -0.2519919 -0.12072375 -0.16522971 -0.11461475
-0.12697452 -0.1516379 -0.23295799 -0.16746433 0.21475106 -0.21231201 0.13396508 0.03149021
-0.11273084 -0.07381324 -0.009752225 -0.2297199 -0.28821516 -0.0014125777 0.21107405 -0.1669106
-0.13102256 0.23073284 0.21499874 -0.076260395 -0.24672826 0.25206438 -0.008712565 -0.24142665
0.07886963 0.012546064 -0.107548974 -0.07383057 -0.109441064 0.2561508 -0.24358357 -0.021258442
0.016917642 0.064570874 0.14966023 -0.043113828 0.18726607 0.09515919 -0.028728986 -0.09128419
0.005907122 -0.28598168 -0.05832957 0.13090244 0.28658947 -0.04794851 0.200961 -0.23405074
0.024673523 -0.06265878 0.23768389 0.18903165 -0.10834502 0.11085257 -0.17361687 -0.07717508
-0.07780842 -0.17994674 -0.003231931 0.17814176 -0.054074604 -0.10595213 -0.12805635 0.13453381
0.18411173 0.29382423 -0.20588972 0.25226724 -0.046430178 -0.11325887 -0.02993544 0.14876348
-0.16589658 -0.0045999074 -0.103298105 -0.23490377 0.0028768613 0.045908302 -0.026269427 -0.2900976
-0.0075373654 0.21285295 0.1598865 -0.2671469 0.14250174 0.28723517 0.007925021 -0.02864255
0.1500005 0.26177186 0.21628553 -0.22135043 0.087829106 -0.06547175 -0.1436689 0.11255654
0.25551325 -0.2197321 -0.0014307583 -0.13314186 -0.030005166 -0.28673518 -0.17789562 -0.077756554
0.11193337 0.20859191 0.07815265 0.23485683 -0.27993855 0.050446894 -0.19588569 -0.22776839
-0.15316248 -0.1491646 -0.05738096 0.091682665 -0.2603882 -0.28212106 -0.16816959 -0.06546314
-0.12654944 -0.156552 0.15740068 0.00953611 -0.2539755 -0.20920333 -0.20471169 0.28786966

linear2.weight f4 [3, 256]
00000000: c1f7 3abd 5759 bc3c 3771 313d 75c9 71bd
00000010: 752a 8fbc e663 dc3c a1af 453d 7446 353d
00000020: 4804 a73c 5278 0bbc e8a3 783d 722f ca3c
00000030: 395d e53c 3fe8 be3c b8e7 3f3d ea44 7e3c
00000040: 243d eabb fcd3 09bd 32ed 5a3d d4b3 dc3b
00000050: be72 48bc 3a64 01bd 6038 1bbd 2ed9 a5bc
00000060: 5423 dabc e940 623d 2f8a 3ebd 934e 35bd
00000070: 5079 b73b 564f 663d 4e5d 1ebd cd26 3e3c
00000080: 3c7a 803d 307b 67bc 3ba1 1b3d 67ae 83bd
00000090: e426 d6bb 38a5 fcbc 002c 77bc 373f debc
000000a0: 02fe 84bd 3657 a93b a5b9 143d a1ae d93c
000000b0: d0a2 9fb8 76cf 1ebd 6652 7ebd 1f49 a23c
000000c0: 5e41 ec3c e3e6 1abd c429 a6bc be7b 9cbb
000000d0: 65e4 30bd 48d1 48bd a8f2 a03c 3d4c 543b
000000e0: 45d3 80bd 887c 52bc 1929 a9bc 730c fe3c
000000f0: 2219 523d 3a13 1a3d f40e 153d 3b43 c8bc
00000100: ecf1 1ebd a3d4 c8bc 2443 f6bc 0840 87bc
00000110: 4c89 e03c 9651 8ebc c73e 87bd 974c 45bd
00000120: e990 043d a376 9c3b 21f4 633d 5dc6 c3bc
00000130: bc86 fb3b 6787 c9bc 88a7 b23a 8eb5 68bd
00000140: b80c 053d 102c 743c 8c66 c2bc fa00 1f3d
00000150: a15e 70bd cb33 293d ad25 23bd 1774 94bc
00000160: d08d a03c ef4d 353d d844 113d 3fed 833c
00000170: 9dc8 c1bb 18cb 7f3d f6d6 0cbd b6dc 12bc
00000180: 5770 c13c 09f8 65bd 110d 92bc d8a9 c73c
00000190: cd6e 083d 8177 523d d79f a73c e844 52bb
000001a0: 9ea3 5abd f7e9 463b 75d0 833d 709d f1bb
000001b0: bf79 efbc d740 5fbd 29c1 343c 60f2 8f3c
000001c0: a68a 1bbd 688b 5d3c 65d9 4ebd ae24 20bc
000001d0: 327a 0dbd 6523 88bc 570a 7fbd 6c4a 273d
000001e0: 1005 debb 5dd5 35bc bd21 053d c565 363a
000001f0: 8e74 383d 6f0d e7bc ba0a 293d 3364 89bd
00000200: fddb 7abd cc7a 26bd d4b2 9bbd f706 d6bc
00000210: 1e6e 8c3d 00a6 073d ac01 e63c e0e3 04bc
00000220: 83df 433d 74a8 b93c 041a 3abd 86ad 973c
00000230: d36a c5bc 426e f2bc 03c6 323d 02a1 9ebc
00000240: a009 8e3b ed51 28bd 9be4 46bc c6e9 003d
00000250: 3bc8 4cbd 2a31 603b 0d0b a3bc 768f 3bbd
00000260: abee 993d 014e fa3c 7e49 2fbd 2a89 e3bc
00000270: 6931 33bd 603d 17bc 18a6 cfbc bf1c 46bd
00000280: 3d0b 64bd a279 67bd 0057 393d 0a99 d4bb
00000290: 04f9 e13c c204 9cbb 31f5 173d d941 05bd
000002a0: 0761 463d c851 1a3d a056 183d 4d07 a13c
000002b0: 3460 963c 99f7 a83c 48c5 c9bb 13a0 853c
000002c0: f3a1 e8bb c979 5dbd ce2e 32bd 5040 0fbd
000002d0: 7d39 41bd e180 0f3c b647 dd3c b821 9c3c
000002e0: cd37 543d 152f 8b3c 2784 323d 2b70 02bd
000002f0: f62a 4ebd 39bc 233c 26f1 38bc 393c 4f3c
00000300: e0de 72bd 74ad 583d ee71 85bd da91 66bd
00000310: 840d 783c 7c54 7f3d 9f9f 473d 3c8d d73c
00000320: 9a45 91bc d0c2 d6bb 2801 30bd f8df 553c
00000330: e5bf cc3c 4388 c5bc d0b4 ff3a 5a11 36bd
00000340: 00d2 ff3b 83b5 253d 198e 0abd e3c6 373d
00000350: a551 1d3c 3dcf c2bc f7d3 a63c 1723 ca3c
00000360: 8181 65bd 4d9a 983b 45b4 65bc fdc3 133d
00000370: 0ad2 fb3c 1752 18bd 6101 2ebd ae76 d7bc
00000380: aaa6 123d 7cab afbc a8af 133d 24a3 0f3d
00000390: 3782 1b3d 3555 32bd f2f9 303b 419b 193d
000003a0: 6b73 2fbd 95c1 d5bb 7c8b ddbc bf82 f53c
000003b0: 4b04 febc 0abf 183d 1c8a c03c 5268 6a3c
000003c0: 3d59 3dbd 56fe 9abc 8e41 5e3c 59df 6f3c
000003d0: 7267 193d c33d c2bb 7426 663b 5a3f 193d
000003e0: e2cd 48bd bc4b 3c3d fbd3 52bd 8058 35bc
000003f0: 0727 9ebc ba48 173d 70ac 04bc 6297 733d
-0.045646433 0.02299182 0.04332086 -0.059030015 -0.0174763 0.026903104 0.048263196 0.044256642
0.020387784 -0.008512573 0.06070319 0.024680827 0.027998554 0.023304103 0.046851844 0.01551936
-0.007148402 -0.03364943 0.053448863 0.0067353044 -0.012234388 -0.031589724 -0.03789556 -0.02024516
-0.026628174 0.055237684 -0.0465185 -0.044264387 0.0055991784 0.056228004 -0.0386632 0.0116059305
0.06273314 -0.014128491 0.03799556 -0.06429749 -0.006535398 -0.030840501 -0.015086174 -0.027129753
-0.06493761 0.005167867 0.036309857 0.026572527 -7.612037e-05 -0.03877207 -0.0620903 0.019810257
0.028839763 -0.037817847 -0.020283587 -0.0047754934 -0.043186564 -0.04902771 0.019646958 0.0032394074
-0.062902965 -0.012847073 -0.02064948 0.031011796 0.0512935 0.037615992 0.036391214 -0.02444612
-0.038804933 -0.024515456 -0.030061312 -0.016510025 0.027409218 -0.017372888 -0.06603771 -0.048168745
0.03236476 0.004774885 0.05565274 -0.023898298 0.0076759737 -0.024600698 0.001363025 -0.05681377
0.032482833 0.014903083 -0.023730539 0.03881929 -0.058683995 0.04130916 -0.039830852 -0.018121762
0.019598871 0.044263776 0.035466045 0.016104339 -0.0059138075 0.062449545 -0.03438469 -0.008963754
0.023613138 -0.056144748 -0.017828496 0.02437298 0.033308793 0.0513835 0.02046196 -0.0032084528
-0.053378694 0.0030351856 0.064362444 -0.0073735043 -0.029232858 -0.054505195 0.011032381 0.017571628
-0.037974022 0.013522007 -0.050500292 -0.00977437 -0.034540363 -0.01661844 -0.06226572 0.04084246
-0.006775506 -0.011098233 0.03250288 0.0006957914 0.04503303 -0.028204648 0.041269995 -0.067085646
-0.061244953 -0.040644452 -0.07602468 -0.026126368 0.06856941 0.033117294 0.02807697 -0.00811097
0.04782058 0.022663333 -0.045434967 0.01851536 -0.02409879 -0.02959359 0.04364587 -0.019363884
0.0043346435 -0.041093756 -0.012139465 0.031472944 -0.049995642 0.0034208992 -0.01990273 -0.045791112
0.075162254 0.030554773 -0.042794697 -0.027775366 -0.043748293 -0.0092309415 -0.025347754 -0.04836726
-0.05567478 -0.056512482 0.045248985 -0.0064879702 0.02758456 -0.0047613094 0.037099067 -0.0325335
0.048432376 0.03767565 0.037191987 0.019656802 0.01835642 0.020625876 -0.006157551 0.01631168
-0.007099384 -0.05407122 -0.043501668 -0.034973443 -0.047173966 0.0087587545 0.027011734 0.019059047
0.05181103 0.016990224 0.04358306 -0.031845253 -0.05033394 0.009993606 -0.011287963 0.012648636
-0.05929458 0.052899793 -0.06515871 -0.05629144 0.015139941 0.06233643 0.04873621 0.026312463
-0.017733384 -0.006553985 -0.042969853 0.013053887 0.024993846 -0.024112826 0.0019508842 -0.04445014
0.0078070164 0.040456306 -0.03382692 0.044867408 0.009601985 -0.02378046 0.020364745 0.024674935
-0.056031708 0.004657066 -0.01402003 0.03607558 0.030739803 -0.037187662 -0.042481784 -0.026301708
0.035803474 -0.021444075 0.03605619 0.035067692 0.03796598 -0.04353829 0.0027004448 0.037501577
-0.04283468 -0.006523321 -0.02704405 0.029969571 -0.031007906 0.037291564 0.023503356 0.014307098
-0.046227682 -0.018920105 0.013565434 0.014640653 0.03745217 -0.0059277727 0.0035118135 0.037413932
-0.04902447 0.045970663 -0.05147169 -0.011068463 -0.019305719 0.03693459 -0.008097753 0.05947054

linear2.bias f4 [3]
00000000: 77f3 ac3c 563d d93b 64d4 173d
0.021112187 0.0066296263 0.037067786
